saved/model_2.pth (torch, 61853 bytes, 18 tensors)

C1.conv.0.weight f4 [1, 1, 5, 5]
000000 46 88 2d bf b8 a4 23 3e 66 c6 e7 3e 46 bb 05 3f
       -0.6778606 0.15980804 0.45268553 0.5223888
000010 b8 79 57 3e a6 2e 02 bf 5b c9 10 3e 7c 28 2a 3f
       0.21042526 -0.5085243 0.14139311 0.66468024
000020 47 fa 0d 3f 59 38 78 bd 5c 99 7f be 8d f1 fd 3e
       0.5546002 -0.060600612 -0.24960846 0.4959835
000030 70 1b ff 3e 6d 39 eb 3e 27 6f a0 be 17 9d 25 be
       0.4982562 0.4594225 -0.31334803 -0.16173206
000040 62 97 75 3e 7d ef ef 3e b0 e7 6f 3e 93 09 df be
       0.23983529 0.46862403 0.23428226 -0.43561992
000050 49 fb b6 3d 4e 39 25 3e db 3b 93 3e 7a c6 f8 3e
       0.089346476 0.16135141 0.28756604 0.48588926
000060 bc 57 31 bf
       -0.692745

C1.conv.1.weight f4 [6, 1, 1, 1]
000000 48 15 2a 3e 30 2c ad 3f 2c 60 8c be b2 9e 54 3f
       0.1660968 1.352911 -0.27417123 0.8305465
000010 4f 39 fd be 3f 13 b7 3f
       -0.49457785 1.4302748

C1.conv.1.bias f4 [6]
000000 11 88 7c be 46 9c 35 3f 5b 7d 05 3e 66 dc 42 3e
       -0.2466128 0.7094158 0.130361 0.19029388
000010 d0 44 92 3e 2f 15 41 3d
       0.28568125 0.047139343

S2.multiply_coefficient_add_bias.weight f4 [6, 1, 1, 1]
000000 18 f3 4b bf f5 c2 79 bf 24 f3 5c bf e1 c8 5f 3f
       -0.79667807 -0.97563106 -0.86308503 0.8741589
000010 e4 07 1b bf d6 93 3a 3f
       -0.60558915 0.7288183

S2.multiply_coefficient_add_bias.bias f4 [6]
000000 fa 72 b7 be 35 a2 89 bd 50 e2 69 bf f0 3d 9b bc
       -0.35829908 -0.06720392 -0.9136095 -0.018950433
000010 20 b2 8a bf cb 35 bb be
       -1.083561 -0.36564478

C3.conv.0.weight f4 [6, 1, 5, 5]
000000 86 e1 79 3e 8b aa f1 3d 3c 49 27 bc c7 14 1c bb
       0.24402437 0.118001066 -0.0102103315 -0.0023816095
000010 33 4b 0b 3d 92 13 9e 3e 11 cd 8a 3e 92 37 6a 3e
       0.034007262 0.30874306 0.27109578 0.22872761
000020 b3 25 11 be 96 9c 58 be b1 81 a9 3d 8f 98 11 3e
       -0.14174537 -0.21153483 0.0827669 0.14218353
000030 fe 53 be bd a6 ae aa bd 5f 11 30 3e bb ab 33 3d
       -0.09293364 -0.08334093 0.17194127 0.043864947
000040 8f 1c af 3d e8 7d bc 3d 60 61 e1 bd 53 e5 41 be
       0.08550369 0.09203702 -0.11004901 -0.18935136
000050 c3 c4 5e 3e e7 28 6f 3d 2f 56 1e b8 d5 17 94 bd
       0.21754746 0.058388617 -3.77504e-05 -0.07231108
000060 b0 77 73 3e d1 4a f0 bd b4 99 8a bd 83 ac 9f 3d
       0.23776126 -0.1173302 -0.06767598 0.07796576
000070 c9 33 1e 3e 31 f6 b6 3e 70 ac 91 be b5 17 f4 be
       0.15449442 0.35734704 -0.28451872 -0.47674337
000080 f1 4e b0 be 10 48 0b bf d8 5b 10 be e9 6d a0 be
       -0.34435228 -0.54406834 -0.14097536 -0.31333855
000090 20 5d 68 be 4f 1f 19 bf 7d 1a 03 bf 66 ef df be
       -0.22691774 -0.598134 -0.5121229 -0.43737334
0000a0 9b 29 87 be 0e 2a 81 bd 6e f9 8c be b3 6e cc be
       -0.2639893 -0.063068494 -0.2753405 -0.39928207
0000b0 47 1d 25 bf b4 36 c0 3b e7 2c 27 3e c5 e4 0e bd
       -0.644978 0.005865896 0.16325723 -0.03488614
0000c0 bf 78 a5 bd d3 76 e5 be 81 c1 4f 3f cf ce 12 3f
       -0.08079671 -0.44817218 0.8115464 0.57346815
0000d0 b6 41 13 3f a9 f0 14 3f 2d 4a 10 3f 9b a5 8b be
       0.5752214 0.5817972 0.56363183 -0.27274784
0000e0 23 82 99 be 52 d0 99 be 5b c9 66 be d1 31 14 3e
       -0.299821 -0.30041748 -0.22537749 0.14472128
0000f0 11 99 bd be 24 e9 bb be 66 ca ee be 98 e0 01 bf
       -0.37030843 -0.3670131 -0.46638793 -0.5073333
000100 60 e9 55 be e6 a4 21 3d 20 5c a5 be e9 88 4e bf
       -0.20889807 0.0394639 -0.32296848 -0.8067766
000110 a1 2f ca be 05 c5 4c bf 60 fc 25 bd be be 3d 3e
       -0.39489463 -0.7998813 -0.040523887 0.18529794
000120 6b 6c 2a 3c 52 8a 4f 3f 0a bc b3 3d b1 ea 1c bb
       0.010401825 0.81070435 0.087761 -0.0023943598
000130 72 81 3b bc a5 93 7c be 26 9b 1d 3b 7d 37 52 be
       -0.011444436 -0.24665697 0.0024048775 -0.2052898
000140 fc 99 a7 bd 08 4c ef bc 7e ca 26 be c0 c1 1b be
       -0.08183667 -0.02921106 -0.16288182 -0.15210629
000150 43 07 e6 be a9 c2 48 3e f6 2c 8f bd 1e 50 8c bc
       -0.44927415 0.19605507 -0.069909975 -0.017128047
000160 44 bc b3 3d af 67 8b be ea cf 90 3e 8b af ea bd
       0.08776143 -0.27227542 0.28283626 -0.114592634
000170 f5 a5 50 bd 3b e3 92 3e 91 47 26 3e 42 bb bd 3e
       -0.05093952 0.28688988 0.16238238 0.3705693
000180 47 ee 9c 3e 63 cd fe 3e 12 37 c6 3e 34 20 2d 3e
       0.3065054 0.49766073 0.3871389 0.16906816
000190 32 7e a6 3c aa b3 c6 bd 38 01 bd be 08 f6 ea be
       0.020323846 -0.09702237 -0.36914992 -0.45890832
0001a0 4a c2 11 bf d3 85 02 be 13 e4 d1 be 17 de b8 be
       -0.56937087 -0.12746362 -0.4099432 -0.3610694
0001b0 b3 dd 65 be 1e 93 80 be 36 99 c9 3e cb 91 d5 3d
       -0.22447853 -0.25112242 0.39374703 0.104281984
0001c0 57 d9 03 be 72 23 65 be 16 bb cd be 0e 02 fa 3e
       -0.12875877 -0.22376803 -0.40181798 0.48829693
0001d0 f6 7d d5 3c 7f 62 65 bc 67 ba d0 be 1c d8 79 be
       0.02606104 -0.014000534 -0.40767214 -0.24398845
0001e0 d8 45 41 be c2 ff 26 3e be 67 d5 bd b2 d3 ce be
       -0.188743 0.16308501 -0.10420178 -0.40395886
0001f0 88 61 5c bf 2f 7a e9 3e 04 c7 ab 3e 40 84 a1 3d
       -0.8608632 0.4560103 0.33550274 0.07886553
000200 2c d4 26 3e 1c 19 9c be 96 54 4f be 1b 74 7a 3e
       0.16291875 -0.30487907 -0.2024711 0.24458353
000210 10 e5 87 bd bb 6b fd bd d5 61 65 be 56 10 fa be
       -0.06635487 -0.123740636 -0.22400601 -0.48840588
000220 cd 05 ad be d0 de 00 bf a9 ef 00 be 2e 83 fb bd
       -0.33793488 -0.50339985 -0.12591423 -0.1228088
000230 b8 70 d9 be 8d 60 cf be 0a 21 72 be a9 95 66 be
       -0.4246881 -0.4050335 -0.23645416 -0.22518028
000240 8b 6c 56 bd a0 ae c3 3e eb 59 2a 3d 04 5c b4 bd
       -0.05234961 0.38219166 0.04158966 -0.08806613
000250 30 c6 03 be e8 1c ac be
       -0.12868571 -0.33615804

C3.conv.0.bias f4 [6]
000000 be a6 54 3e 03 92 10 3e ea 10 02 bc 49 bf 8f 3d
       0.20766732 0.14118199 -0.007938603 0.070189066
000010 b8 72 d7 3e a5 ed 12 3e
       0.4207971 0.14348467

C3.conv.1.weight f4 [16, 6, 1, 1]
000000 eb d9 17 bc 87 9a eb bd 1e 90 9d 3f 74 e8 88 be
       -0.009268264 -0.11504083 1.2309606 -0.26739848
000010 34 dc 78 3e 83 0c cc be 3d b8 2a 3e 2e 82 d0 be
       0.24302751 -0.39853296 0.16671844 -0.4072432
000020 ec 4a d2 be 2d ad df be 9e 31 9a 3c 6f 17 98 3e
       -0.41072786 -0.4368681 0.018822487 0.29705378
000030 02 d7 02 be 70 06 18 bf 28 d8 58 bf 57 71 f9 3c
       -0.12777331 -0.5938482 -0.8470483 0.030449552
000040 dc d8 02 bf bb 24 13 3f dc 9a 4c be 4e 1d be 3e
       -0.5111215 0.5747792 -0.19980949 0.37131733
000050 dc 3a 77 bd 5e 70 9f be 27 c6 82 3e 59 59 ba bd
       -0.060358867 -0.31140417 0.25541803 -0.09099073
000060 26 6c 14 3e 83 96 98 be 27 20 50 3f 02 7c 2f 3d
       0.1449438 -0.2980233 0.8129906 0.042842872
000070 df fe 08 bf 8d f9 51 3f ad 9c ad 3e 3c 6c d5 3d
       -0.535139 0.8202141 0.33908597 0.10421035
000080 c4 ba 7a bd 50 12 9a be 24 35 32 3c a3 1d a7 bd
       -0.06121327 -0.30092096 0.0108769275 -0.0815995
000090 b4 5a 56 be 67 ea 9d 3e 61 26 47 3f 96 31 0f 3e
       -0.20933038 0.30842897 0.77792937 0.1398376
0000a0 22 be cb bc cd b3 50 be 6b ee b1 be 09 48 ba be
       -0.024870936 -0.20381089 -0.3475221 -0.36383083
0000b0 a0 f6 c5 3e 60 aa 94 be eb e4 a0 3f 6c d7 55 3e
       0.38664722 -0.29036236 1.256986 0.20882958
0000c0 b3 c3 c1 3e 32 29 37 3f 5c 3e 2c 3f ef 84 05 3d
       0.3784462 0.71547234 0.6728265 0.03259748
0000d0 39 c3 1d 3f ca 73 b2 3d 26 67 79 3e 5a 85 16 bf
       0.6162601 0.08713491 0.24355754 -0.5879723
0000e0 32 34 0f be 33 ec 04 3f ad 77 8b 3e 92 5c 93 3e
       -0.13984755 0.5192291 0.27239743 0.28781563
0000f0 4c 31 9c be dd b6 25 bf 8c ec 85 3f 2b 34 61 bf
       -0.3050636 -0.6473215 1.0462813 -0.87970227
000100 73 cf fd be 1b 6c 90 3e 47 e0 d8 be 29 5a 37 bf
       -0.49572334 0.28207478 -0.4235861 -0.7162195
000110 c9 94 9d be d2 44 a3 3e 93 e0 46 be 45 3c 68 3c
       -0.30777577 0.31888443 -0.19421606 0.014174526
000120 03 a1 33 be 95 69 40 be 31 88 7b bd c4 7a a6 3e
       -0.1754189 -0.18790276 -0.06140918 0.32515538
000130 c8 87 54 3e 2a ed f5 bc 8d c8 44 be 2c d3 57 bf
       0.20754921 -0.030020315 -0.19217129 -0.843066
000140 99 36 a1 3d 29 8b f3 3e 24 4f 9a be df dc 49 3f
       0.07871742 0.47567108 -0.30138505 0.7885265
000150 69 fc c1 3e 2d 44 5a be 1a 4a 75 be e6 7d 90 3e
       0.37887886 -0.2131507 -0.23954049 0.28221053
000160 3d 1e 8f be b3 55 f4 3d 01 42 86 3e 6a 50 b2 be
       -0.27952757 0.11930408 0.26222232 -0.34826976
000170 2b 8e 14 3e 4a f4 91 3e b0 99 d2 be fe 43 6e 3e
       0.14507358 0.2850669 -0.4113288 0.23268124

C3.conv.1.bias f4 [16]
000000 90 8e 9b bc 1d b5 ed bd 8c 64 ed be 0a 3d 5c bc
       -0.018988878 -0.1160681 -0.46365774 -0.013442287
000010 bf b4 86 bd 64 72 a0 3e 69 04 1f be 8b eb 3d 3e
       -0.06577443 0.31337273 -0.15529026 0.18546884
000020 73 b5 8b 3d db da 54 be bb a1 38 be 91 4e f5 be
       0.06821718 -0.20786612 -0.18030445 -0.47911504
000030 d2 f0 b1 3e 3a b0 c5 3e 07 ad 92 3e fc 45 c3 be
       0.34754044 0.38611013 0.28647634 -0.3813933

S4.multiply_coefficient_add_bias.weight f4 [16, 1, 1, 1]
000000 c2 f3 54 3f 84 fc 1b 3f ad 45 a7 bf df 34 1f 3f
       0.83184445 0.60932183 -1.3068138 0.6219005
000010 9e c5 82 bf e4 1b 70 3c d4 ad 40 bf e3 d5 b4 3f
       -1.0216558 0.014655087 -0.7526524 1.4127773
000020 e6 06 99 3f b6 4b 34 bf bf c7 4f 3f aa 76 48 3f
       1.195523 -0.70428026 0.81164163 0.78306067
000030 cf 44 1c 3e a6 8e 51 3f e7 24 03 3d f9 74 80 3e
       0.15260623 0.8185829 0.032017615 0.25089243

S4.multiply_coefficient_add_bias.bias f4 [16]
000000 bf 35 05 be 4f 95 d9 be 53 48 6e bf 11 4c 7b bf
       -0.13008784 -0.42496726 -0.9307911 -0.98162943
000010 dd 88 7c be 8c c3 13 3f 80 7e 73 bf ff e3 28 3e
       -0.24661584 0.57720256 -0.951149 0.16493224
000020 89 12 80 3e db 42 3f 3f e2 12 3f 3e fa c1 13 be
       0.2501414 0.7471139 0.18659547 -0.14429465
000030 15 e7 3f bf dc c3 10 bf 03 73 c3 3e 1d 87 f7 3e
       -0.7496198 -0.5654886 0.38173684 0.4834527

C5.conv.0.weight f4 [16, 1, 5, 5]
000000 16 aa 00 be 19 e3 04 bd b4 76 92 be de f7 b0 be
       -0.12564883 -0.03244314 -0.28606188 -0.34564108
000010 38 71 a8 be a8 44 2c 3f 49 1e b4 3c e7 52 48 be
       -0.3289888 0.6729226 0.021987097 -0.19562875
000020 b9 6f 36 be b2 1e 95 3d f4 38 05 3f 11 3c 94 3e
       -0.17816056 0.07281245 0.5204003 0.28952077
000030 f7 3f 08 be 11 2c 55 be 7f fc 7f 3e e5 45 d5 3e
       -0.1330565 -0.20817591 0.24998663 0.41654888
000040 85 bd 59 3e 31 2e 9d 3c 88 c3 91 bd e0 36 e7 3d
       0.21263702 0.019187065 -0.07117373 0.112897635
000050 ef 2d 80 bd 71 91 33 3e b4 30 f3 bc 3e 5f ae bd
       -0.06258761 0.1753595 -0.02968631 -0.0851426
000060 05 eb 31 3e 4c a5 55 bd cb 72 c3 3d d1 74 92 bd
       0.17374809 -0.052159593 0.095433794 -0.07151187
000070 7b ab 98 3c 6d 18 e4 bc c5 ce 82 3d 86 4d be bd
       0.018636456 -0.027843678 0.063870944 -0.0929213
000080 2a dd 12 bd 97 71 18 be 87 de 4a ba a2 2b 32 bd
       -0.03585545 -0.14887081 -0.00077388476 -0.043498643
000090 2d b3 bb bc ae b3 a9 bc 55 61 92 bd a7 65 29 be
       -0.022912586 -0.02071556 -0.07147471 -0.16542684
0000a0 ef 01 06 3d 90 4f 4f 3e 09 fb 53 bd e3 29 1e bd
       0.032716688 0.20245194 -0.051753078 -0.038614165
0000b0 6d 89 12 be 5d 42 a1 be 00 b4 14 bf cb 27 1f bc
       -0.14310236 -0.31495944 -0.5808716 -0.009714077
0000c0 28 24 8f 3e 6e 0d 44 3e 5f 8b 1d 3d 74 51 22 bd
       0.27957273 0.19145748 0.038462993 -0.03962846
0000d0 53 e2 c4 bd 16 25 b8 bd 12 c9 75 bd e5 63 4e 3e
       -0.096134804 -0.089914486 -0.06000621 0.20155294
0000e0 06 1d 76 3d d9 d7 0e 3e 03 69 6f 3c a8 01 16 bc
       0.060086273 0.13949527 0.014612439 -0.009155668
0000f0 83 1e 01 be 17 0a c5 bc ce b6 fb 3d 36 6b 66 3e
       -0.12609296 -0.024052663 0.122907266 0.22501835
000100 ab cd 6f 3d 19 2f 16 bf 92 a0 02 bf 6f 46 ab bd
       0.05854575 -0.58665615 -0.5102626 -0.083630435
000110 4a 3e 13 3c d0 c1 13 3e 8b 7e 0e bd 42 73 9f 3c
       0.008987019 0.14429402 -0.03478865 0.019464139
000120 14 cc 43 3e ad 1a cc 3e fb ff e7 3e 8c 5a 53 3d
       0.19120818 0.39864102 0.45312485 0.051600024
000130 cc 5a ad bd 4c 99 8d 3c c1 ca fe 3c 53 a0 ac 3c
       -0.08464584 0.017285012 0.03110254 0.021072542
000140 b0 90 63 be 2e c5 9c 3d d0 81 ad 3d ae 66 41 be
       -0.22223163 0.076547965 0.084720254 -0.18886825
000150 8f 10 1c 3e 51 37 a9 3d 7d 2e 34 bd 0b f4 23 3e
       0.15240692 0.08262504 -0.043989647 0.16011064
000160 2d 49 29 3e 1c fd b8 3c cb 46 7a bc 7a d2 0a 3e
       0.1653182 0.02258163 -0.015275667 0.13556853
000170 42 f9 ac bd eb 34 c4 bd 75 02 67 3d 21 0e 5a bd
       -0.0844598 -0.09580406 0.056398828 -0.05323613
000180 fa 7b 1f 3d 8a 55 34 3e 9e b4 23 3e 51 d3 e5 bd
       0.038936593 0.17610756 0.15986869 -0.11221946
000190 dc de 4a bd 83 fc e4 bd 8c e4 54 be 97 fa 92 be
       -0.04952894 -0.11180975 -0.20790309 -0.2870681
0001a0 3e 66 f0 be 93 c3 26 3d 71 eb 04 bf 34 97 00 3d
       -0.46953005 0.040713858 -0.51921755 0.0313942
0001b0 56 e2 7a be b8 41 56 be 64 d5 65 be 64 03 1b 3e
       -0.24500403 -0.20923507 -0.22444683 0.15138012
0001c0 b8 c8 4d 3f 24 c3 62 be cc e3 0a be 66 5b 9f 3e
       0.803844 -0.22144753 -0.1356346 0.3112442
0001d0 b5 9d e9 ba 05 9e 60 3e 55 b1 3c 3e 06 40 ab 3e
       -0.001782349 0.2193528 0.18427022 0.33447284
0001e0 2c 01 80 3f e2 0b be 3e 04 e7 2e 3f 80 8d 0a 3f
       1.0000358 0.3711844 0.6832125 0.5412216
0001f0 6d 70 81 3e b6 41 47 3d 4f 2f d0 3d bc 26 39 be
       0.25281087 0.04864665 0.101652734 -0.18081182
000200 f7 b1 e4 bd ff 9d 8b bd b0 d9 d6 bc f1 fb 02 3e
       -0.111667566 -0.06817245 -0.026226848 0.1279142
000210 1d 95 10 3e 2b 41 cc bd 35 29 10 3e 4f 12 43 3e
       0.14119382 -0.09973367 0.14078219 0.19049953
000220 2e 42 df 3d 07 e2 2c be e9 d6 81 3d d4 f6 3f 3d
       0.10901295 -0.16883098 0.06339819 0.046866253
000230 72 c8 95 3d b1 cd 3e 3e e5 e7 a6 bd 6a af ad bb
       0.073136225 0.18633153 -0.08149699 -0.005300452
000240 73 3b 2b be e7 1c 8b 3d 09 9e e1 3d 30 25 0b 3e
       -0.16721897 0.06792622 0.11016471 0.13588405
000250 d7 fb 1c be 35 39 0d be 95 67 2a be ae 0e 19 be
       -0.15330444 -0.13791354 -0.16641076 -0.14947006
000260 6b 76 f0 bc 54 c0 cd 3e b6 e9 8f 3e 60 b2 1d be
       -0.029353341 0.40185797 0.28107995 -0.15400076
000270 4a d2 ae bd 80 ea 6a 3d d1 89 b0 3e 4a 87 f8 3e
       -0.08536203 0.057352543 0.34480146 0.48540717
000280 27 78 89 be ef 00 06 be c3 65 37 3d e5 43 a5 3c
       -0.2684948 -0.13086294 0.044774782 0.020173976
000290 9f 1f 6e bc bf e2 f3 3d cb 31 77 bd 76 b9 d6 3d
       -0.014533906 0.11908483 -0.06035022 0.104845926
0002a0 28 52 4e 3c 97 06 f7 bd cf 15 b1 3a b2 61 87 3d
       0.01259283 -0.12061804 0.0013510528 0.06610431
0002b0 f6 f5 69 bd 90 aa 56 3e ae c2 2b 3d f1 0d 59 be
       -0.057119332 0.20963502 0.041933708 -0.21196724
0002c0 3c 43 bf 3e 81 ef 98 3d e8 09 43 3d 58 33 87 3d
       0.37355983 0.07467557 0.04761687 0.0660159
0002d0 3f b0 5a 3f dc 97 24 be ad 4c 1c bd 7b d1 7e 3e
       0.8542518 -0.16073555 -0.03815906 0.24884598
0002e0 81 62 00 be 3e 4f a1 3e 5f cd d8 bd 22 8e 16 be
       -0.12537576 0.3150577 -0.105860464 -0.14702657
0002f0 77 56 ca 3e 45 57 ee bb 87 c8 df 3d 0f a6 07 3e
       0.39519092 -0.007273587 0.109269194 0.1324694
000300 84 f5 1d 3e cb 7f a5 3e 44 41 21 3d e9 cd 2e be
       0.15425688 0.3232406 0.039368883 -0.17070736
000310 e4 34 31 be 81 ad da 3e 1a 0d d7 bd 99 84 55 bd
       -0.17305332 0.42710498 -0.10500546 -0.052128408
000320 44 de 3b be 78 fa 0d be 20 e5 84 be d2 08 26 bf
       -0.18346506 -0.13865077 -0.25956059 -0.6485721
000330 5a b2 93 be 8c ef 9f be 64 52 07 be f4 18 63 3e
       -0.2884701 -0.31237447 -0.13215023 0.22177488
000340 d5 fc c0 3e f1 07 a8 3e 0c 1d 63 3e dd 2a ef bd
       0.37692896 0.3281856 0.22179049 -0.116780974
000350 89 e1 1a 3e 39 6b a3 3e 7f 87 dc 3e 5c 79 db bc
       0.15125097 0.31917742 0.43072125 -0.026791267
000360 e1 51 02 3c 41 b0 f6 3d 93 a9 de 3d e1 2d 49 3d
       0.007954092 0.120453365 0.108721875 0.04911602
000370 8a a2 7e be 68 6c 8e bc ea 30 a0 bd 4c 06 25 bd
       -0.24866691 -0.017385677 -0.078218296 -0.04028921
000380 2e 5e a7 bd 06 8b 7a be 04 f4 83 3e 37 cd 30 3f
       -0.0817226 -0.24467096 0.25772107 0.69063133
000390 ff 5b 0a 3f 95 b1 5f 3e 03 0c 91 bd 4d d1 77 3e
       0.54046625 0.21845086 -0.07082369 0.24200936
0003a0 4b 19 40 3e 2c 5d 04 bd eb 37 4b 3d e4 df 0b 3e
       0.18759649 -0.032315418 0.049613874 0.13659626
0003b0 fa eb 6f 3e 34 8a dc be 47 16 20 be 42 5b 9c bd
       0.23429862 -0.4307419 -0.15633498 -0.076345935
0003c0 f1 25 88 be 28 c2 77 bd e2 02 35 bd 6e 03 cb 3d
       -0.26591447 -0.060487896 -0.044192202 0.099127635
0003d0 80 e8 e9 3d cd 92 16 3e d6 85 95 3c b8 ad a1 be
       0.11421299 0.14704438 0.018252295 -0.3157785
0003e0 85 f4 c2 3d 46 5b 4e 3e e5 25 aa be b9 cc c7 bd
       0.09519295 0.20152006 -0.33232036 -0.097558446
0003f0 ed fd 81 bd fd 99 50 be 5b 65 89 bd bd dc 1b 3e
       -0.063472606 -0.20371242 -0.06708785 0.15220924

C5.conv.0.bias f4 [16]
000000 19 a5 58 3b 75 ef f8 bc 73 75 47 3e c2 38 01 3d
       0.003305739 -0.03038762 0.19478397 0.03154827
000010 50 51 ce be 10 32 3e 3e fa 32 ec bd 6d 2c be bd
       -0.40296412 0.18573785 -0.115331605 -0.09285817
000020 95 89 25 3e b1 0a 27 be a1 61 30 3e e7 19 98 3e
       0.16165765 -0.16312672 0.17224742 0.29707262
000030 66 60 fc bd 23 6c 20 bd ee db 2e be 70 2c 22 3e
       -0.12323074 -0.039165627 -0.17076084 0.15837264

C5.conv.1.weight f4 [120, 16, 1, 1]
000000 e0 a9 7b 3e fe 44 0f 3e ab 8b 2d 3e 34 93 3b 3e
       0.24576521 0.13991162 0.1694781 0.18317872
000010 18 46 c9 3d 95 be 3b 3e 28 f0 da bd f2 17 8d 3d
       0.098278224 0.1833442 -0.106903374 0.06889333
000020 15 72 a5 bd fe 54 95 bc b8 ed 79 3d 26 50 17 3e
       -0.080784 -0.018229004 0.061017722 0.14776668
000030 12 a2 fb 3d c7 0f 69 be ce 72 35 bd 1d a5 06 3e
       0.12286772 -0.22759925 -0.04429894 0.13148923
000040 b3 57 20 3d 6e c2 91 3d d3 81 d9 bd d4 19 7a 3d
       0.039146136 0.07117163 -0.10620465 0.061059788
000050 88 7d 13 be b6 26 a4 bd be 6c 8c 3c b2 df e9 bd
       -0.14403355 -0.08015196 0.017141696 -0.114196196
000060 67 b5 58 3e 9a f6 76 3e c3 aa 15 be 6f f0 a9 3d
       0.2116295 0.24117509 -0.14615922 0.08297812
000070 da d1 35 bd 45 f9 52 3e 4a 54 0f 3e 5e 21 2a 3e
       -0.044389583 0.20602901 0.13996997 0.16614291
000080 1a a4 2a 3e 2b a7 63 be f3 64 2f bd 4e 42 96 bd
       0.16664162 -0.22231738 -0.042820882 -0.07336865
000090 66 dd a0 3d 14 92 13 3e 9c d8 44 3e 0b 69 45 bc
       0.078547284 0.14411193 0.19223255 -0.01204897
0000a0 6d a7 ad 3d ea 01 2f 3d 3d 30 46 3e e7 59 2f 3e
       0.084791996 0.042726435 0.19354339 0.17124139
0000b0 01 a2 57 be 25 9a a9 bd b7 27 51 be 5d aa 0b 3e
       -0.21057893 -0.08281354 -0.20425306 0.13639207
0000c0 ee 01 2c 3e bc 29 3d bd 7d 70 18 bc 2a cd 75 3e
       0.16797611 -0.04618238 -0.009304163 0.24004045
0000d0 e1 a9 11 be a4 a1 32 be 07 4f 44 3b 06 09 09 be
       -0.1422496 -0.17444474 0.002995433 -0.13382348
0000e0 23 58 fc bc 18 c8 d6 bc 44 9e d6 bc 8b 6f dc bd
       -0.030803746 -0.026218459 -0.026198514 -0.10763463
0000f0 4c a9 7c 3e 35 ac 4a 3e 9d aa 9b bc 5e cc 63 3e
       0.24673957 0.19792254 -0.019002253 0.22245929
000100 d3 33 34 3d 1d 2c 44 be b6 e1 6a 3e 8e 94 81 3c
       0.043994736 -0.19157453 0.22937664 0.015817907
000110 3c 64 6a 3e 4a 26 1c be af 00 01 3d 72 4e 29 be
       0.22889799 -0.15248981 0.031494793 -0.16533831
000120 61 91 3a be ca 76 b9 3d db cf f2 bc 33 c0 af 3d
       -0.1821952 0.0905586 -0.029640129 0.08581581
000130 5a 58 81 3d d3 cc 7f 3d 5d 14 23 3c f3 62 27 3d
       0.0631568 0.062451195 0.009953585 0.04086585
000140 e0 18 3a 3e 82 00 2f 3e 54 80 14 3d 7e 7b b2 bd
       0.18173552 0.17090037 0.036255196 -0.087149605
000150 b7 64 6e 3e 15 c6 2e be 0c 33 34 3e b6 c1 bb bd
       0.23280607 -0.1706775 0.17597598 -0.09167807
000160 b3 6f b4 3d 98 54 c6 bd a0 b0 48 be a2 72 5d be
       0.088103674 -0.09684104 -0.19598627 -0.2162576
000170 2b ac 49 be 8b fe 37 bd 3b c5 3b be 3b 91 14 bd
       -0.19694583 -0.044920485 -0.18336956 -0.036271315
000180 54 21 33 be 3c 4a 20 3c 4c c9 78 3b 4d 03 69 3d
       -0.17493182 0.009783324 0.003796178 0.056887913
000190 f5 ac 1d 3e 1b 31 4f 3e 26 9a 28 be 51 d0 bd bd
       0.15398009 0.20233576 -0.16465053 -0.09268249
0001a0 cf f4 f2 3c 9d 7a f3 bd 50 72 ef bc 05 3f 1c 3d
       0.02965775 -0.11888621 -0.029229313 0.038146038
0001b0 77 4b 17 3e f9 f3 73 3d 93 3e 54 3e 50 42 ff 3c
       0.14774881 0.059558842 0.20726995 0.03115955
0001c0 ee f2 81 be 9b 17 9b be 1e 37 43 be bc fa 71 be
       -0.25380653 -0.30291447 -0.19063994 -0.23630804
0001d0 f0 4c 87 be 0e f4 1d be 91 c1 e1 bc 0c f8 90 be
       -0.26425886 -0.1542513 -0.02755812 -0.28314245
0001e0 c1 de 60 be 31 6e d6 bc 0e 81 1e 3e ea 29 83 be
       -0.21959974 -0.02617559 0.15478918 -0.25617915
0001f0 be 0c 55 3d 04 e6 ca 3e f6 72 b9 3d f9 24 48 3b
       0.052014105 0.39628613 0.0905513 0.0030539616
000200 36 20 8d 3e 25 06 d7 3c ff 8d 36 be 71 0c 38 3e
       0.27563637 0.026248047 -0.17827605 0.17973496
000210 f1 d8 02 bf 2f 45 eb bd a2 e1 2d be 8a 96 7c 3e
       -0.51112276 -0.11487805 -0.16980603 0.24666801
000220 18 79 80 be 16 57 e3 be 19 52 11 3c 32 ff 6b be
       -0.25092387 -0.4440238 0.008869671 -0.23046568
000230 4d 6c 17 be 7b 75 1f 3d 09 4b 05 3e 79 23 29 be
       -0.14787407 0.038930397 0.13016905 -0.16517438
000240 6c 6f da 3d 55 23 17 3d 70 ff 18 3e da 30 3f be
       0.10665783 0.03689893 0.14941192 -0.18670979
000250 97 26 78 bd 61 80 19 be b2 c7 81 3d 89 51 13 be
       -0.060583677 -0.14990379 0.06336917 -0.14386572
000260 c7 24 2b 3e 39 c8 ee 3d bb 45 49 3d 0d a1 4d 3e
       0.16713248 0.11659283 0.049138766 0.20080967
000270 5b 28 f4 bd 17 df a7 bd 04 83 4c be 0e 59 85 3d
       -0.1192176 -0.08196848 -0.19971853 0.065111265
000280 d3 2b 72 3d 89 0a d6 bc d4 6c 31 bd 09 fd 45 be
       0.059123825 -0.02612807 -0.043316677 -0.19334807
000290 f0 04 44 be 17 9c 26 bd f1 88 08 be 19 c3 0b be
       -0.19142509 -0.040676203 -0.13333489 -0.13648643
0002a0 36 10 25 3e 68 0e 01 3e 3c 1f 65 3c 84 4b 2f 3e
       0.16119465 0.12603152 0.013984498 0.1711865
0002b0 94 fe 0e 3d 7c a7 00 3e 92 07 37 be 41 03 cb 3d
       0.034910753 0.1256389 -0.17873982 0.0991273
0002c0 aa 9b 25 3d a2 a9 07 be 27 dd 55 be c7 10 d5 bd
       0.040431656 -0.13248304 -0.20885144 -0.10403591
0002d0 e0 d4 3f be c3 d0 f6 3d cb 85 91 3e 4e 66 a7 be
       -0.18733549 0.12051537 0.28422388 -0.3269524
0002e0 db ec 90 bd be 1d 11 3d d9 56 10 3e 11 99 75 3e
       -0.070764266 0.035428755 0.1409563 0.23984171
0002f0 ec d0 88 bd 36 61 a2 be ed 45 a0 3d 8e ef 98 3d
       -0.06680474 -0.3171479 0.07825837 0.074675664
000300 37 70 0d 3e ba ad 68 be 6c 7a ad 3d da 5c 6c 3e
       0.13812338 -0.22722521 0.08470616 0.23082295
000310 77 0c 4b 3d 73 6f 1c bd 2e b6 6e be aa c5 07 be
       0.049572434 -0.038192224 -0.23311684 -0.13258997
000320 39 84 4c 3e 66 91 fb 3b c1 2e d8 3d 67 2e 25 bd
       0.19972314 0.007677245 0.105557926 -0.040327456
000330 3a d9 5d 3e 44 b4 c2 3d 36 83 95 3d 90 43 4a 3e
       0.21664897 0.09507039 0.07300417 0.19752336
000340 53 92 25 be 08 f8 84 3d 5e 0d 85 bd ce c7 19 3d
       -0.161691 0.06492621 -0.0649669 0.037544064
000350 d0 8e 8b 3e c4 aa be 3d 94 86 b5 bd 86 b4 5d 3e
       0.27257395 0.09309915 -0.08863559 0.21650895
000360 7d 48 e7 ba 26 8f 62 be 7f 40 a2 3d 6b 4e d6 bb
       -0.0017645505 -0.2212492 0.07922458 -0.00654011
000370 63 d7 04 3e fc 05 71 be df bd 10 be 43 c0 07 be
       0.12972789 -0.23537439 -0.1413493 -0.13256936
000380 5f 91 66 3d a8 01 58 bd a9 9b c2 3d d0 2b 27 be
       0.05629098 -0.052735955 0.09502346 -0.16325307
000390 3b 37 ba 3d 82 5b 62 bd 21 9c ec 3d c0 7e 76 bd
       0.090925656 -0.05526305 0.11553217 -0.060179472
0003a0 72 c3 36 be 93 43 1e be e7 96 52 be 9e 89 f7 3d
       -0.17847994 -0.15455465 -0.20565377 0.12086795
0003b0 0a e9 0f 3d 3f 48 1f 3e 0b 9c 94 bc 63 09 6a 3e
       0.035134353 0.15554903 -0.018140813 0.22855143
0003c0 5f 20 5f 3d 8a 95 c7 bd da 72 01 be 3f 76 ef 3c
       0.05447423 -0.09745319 -0.12641469 0.029231189
0003d0 f5 9c bc bd 9d 88 63 be 51 c4 58 be 36 47 05 3d
       -0.09209625 -0.22220083 -0.21168639 0.032538615
0003e0 74 5b 72 3d eb 2a e7 bd 9a da 11 3e 83 f7 20 3d
       0.059169248 -0.11287483 0.14243546 0.039298546
0003f0 38 69 14 3e 2b 1a 9c bd 09 cc c2 bd 5a 47 1b be
       0.14493263 -0.07622179 -0.09511573 -0.15163937

C5.conv.1.bias f4 [120]
000000 20 10 20 3e 84 97 d9 3d 5b 81 bc bd d6 be 31 3d
       0.15631151 0.106246024 -0.0920436 0.043394886
000010 eb f6 28 3d ff 93 9d bc af 45 8e be 0d 2a 02 be
       0.041251104 -0.01923561 -0.2778754 -0.12711354
000020 fe 71 36 be 22 07 c5 bd 82 0e 17 be d7 c3 ba 3c
       -0.17816922 -0.09620501 -0.14751628 0.022798462
000030 72 62 71 bc c2 4b 44 be b0 e9 0b bd e1 a5 78 bd
       -0.014732944 -0.19169524 -0.03415841 -0.06070507
000040 72 67 af 3d 0c 0b 0c be 20 1b 8e bd e4 fb c1 3b
       0.085646525 -0.13676089 -0.069387674 0.0059199203
000050 32 f9 dc bd ca 0b 8d 3e cc a6 00 be f3 c8 2c 3e
       -0.10789718 0.27548057 -0.12563628 0.16873531
000060 b3 fa 20 3e c7 35 28 3e 7d 2d a3 3d 66 35 c2 bd
       0.15720634 0.16426764 0.079676606 -0.09482841
000070 5d 82 a8 3d 8f 28 27 bb 07 07 0e 3d 24 6e 87 3e
       0.0822799 -0.0025506353 0.03467467 0.26451218
000080 4c 5f 5c 3d 44 4a c0 3d 10 cc 98 3d 84 40 54 3e
       0.05380182 0.09389165 0.07460797 0.20727736
000090 60 16 2f be 5a 46 41 3e 3e d6 51 3e 26 0f 99 3c
       -0.17098379 0.18874493 0.20491883 0.018683981
0000a0 fa d9 e9 bc ab 38 b7 3d 4c 86 42 3d 7b 49 44 3e
       -0.028546322 0.089463554 0.047491357 0.19168656
0000b0 a4 6d 22 be 56 1d 1f bd 78 2c 9b be ce fe 47 bc
       -0.15862137 -0.038846336 -0.30307364 -0.012206746
0000c0 3e 4a 45 be a3 69 83 3b db 3b 2f be ed d9 5f 3d
       -0.19266602 0.0040103956 -0.17112677 0.05465119
0000d0 f4 9f f7 3d f1 94 31 bc 35 f6 a0 bd 06 19 54 bd
       0.120910555 -0.010838733 -0.0785946 -0.051781677
0000e0 f1 9d 82 be 20 48 b0 bd 72 b5 a2 3d ae 10 4e 3d
       -0.25511125 -0.08607507 0.07944764 0.050308876
0000f0 c0 ad 69 bb cf 0b 8e 3e 97 8a 5e 3b 35 7b c8 3d
       -0.0035656542 0.27743384 0.0033957118 0.09789125
000100 04 33 05 3e 9c 05 79 be 57 c6 c8 3d 50 31 01 3c
       0.13007742 -0.24318546 0.09803455 0.007885292
000110 9e 68 ed 3d 40 b2 4d be f6 36 98 bc c8 68 30 be
       0.1159222 -0.20087528 -0.018580895 -0.17227471
000120 40 86 cc bd 35 89 c2 3d 24 22 a1 3d 7e 96 a1 3d
       -0.09986544 0.094988264 0.0786784 0.07890032
000130 a7 27 32 be ae 57 f6 3d 23 ea 9a 3e e5 51 28 be
       -0.17397939 0.12028442 0.30256757 -0.1643749
000140 fb ea f8 bd 99 23 06 3e 3e b1 bd 3d 49 65 db bd
       -0.12154194 0.13099517 0.09262322 -0.10712678
000150 82 a3 54 bc 53 4d a8 be 54 73 30 3e d6 1e 0a 3e
       -0.012978436 -0.32871494 0.17231494 0.13488325
000160 f1 64 dc bd b7 b2 03 be 88 18 01 be 03 ee cc be
       -0.107614405 -0.12861143 -0.12607014 -0.4002534
000170 c8 ed 89 bd 3c 29 03 3e 28 c8 99 3e 25 b0 db 3d
       -0.06734806 0.12808698 0.3003552 0.10726956
000180 00 96 c4 3d dd 29 29 3d 7e b5 d2 3d 94 dd e0 3d
       0.09598923 0.04129969 0.10288523 0.10979763
000190 2c 94 1d 3e e1 fa 32 be 5a de d7 3c 4c 64 31 3e
       0.15388554 -0.17478515 0.026351143 0.17323416
0001a0 b9 b5 28 3e a2 00 e3 3d d1 04 16 be 0d 9f 17 bc
       0.16475572 0.11084105 -0.14650275 -0.009254229
0001b0 1d 91 63 be 22 b4 c6 3b 67 e1 b4 be 57 e4 80 3d
       -0.22223325 0.006063954 -0.35328218 0.06293552
0001c0 5a 57 02 be 68 3b ab bd 6f f4 2e be 0b 84 a3 bd
       -0.12728634 -0.0836094 -0.17085432 -0.079841696
0001d0 f4 63 7b bd fc 06 17 3e 8a 57 45 3e ef 97 6c be
       -0.06137462 0.14748758 0.19271675 -0.23104833

F6.weight f4 [84, 120]
000000 d8 a2 67 bd 41 6b 3b bd e2 1d e0 3c 20 e9 66 3d
       -0.056551784 -0.045756582 0.027358 0.05637467
000010 a9 39 5d 3d 7e 95 cb bd 78 a3 54 3d 7d 8e ac bd
       0.054010067 -0.09940623 0.05191371 -0.08425615
000020 59 7f cd 3c af 20 0f bd 9a 1c 9d bd b4 32 45 3c
       0.025085138 -0.03494328 -0.07671471 0.012036014
000030 7d 46 16 bc 20 ee db bd d2 d0 5f bd af a7 52 3d
       -0.009172079 -0.10738778 -0.054642506 0.051429447
000040 3c 1e 77 bb a6 b0 30 bd 95 1d bb bd c0 2c 4b 3d
       -0.003770723 -0.043137215 -0.09136502 0.049603224
000050 9d 64 0a 3d 72 23 d5 bd ac 7d 18 3d fe 35 75 3d
       0.03378736 -0.10407151 0.037229225 0.059865944
000060 ac 6c bb 3d 8b 37 e8 3d c1 b0 10 bd be c7 36 3d
       0.09151587 0.11338719 -0.035324816 0.044624083
000070 af b8 14 bd 80 1b 65 bd e8 b0 0d 3c 78 af 38 3d
       -0.03630894 -0.05593443 0.008648135 0.045089215
000080 01 eb 78 bd fc db 8a 3d ec d5 be 3d 1d c0 14 bd
       -0.060770992 0.0678024 0.09318146 -0.036316026
000090 01 f4 9b bc 15 58 ce bc 3e 20 19 3c 40 7d 8e 3d
       -0.019037249 -0.025188485 0.009346066 0.06957483
0000a0 5e cd b7 bd 68 93 5b 3c 69 f2 8a bc 9c be 33 3a
       -0.089747176 0.013401844 -0.016961293 0.0006856711
0000b0 ad 61 9c bc dc e3 2d bd de bd a8 bd 58 bf 45 3c
       -0.019089544 -0.04245363 -0.08239339 0.012069546
0000c0 39 18 3d 3d 5e 6c 9a bd fb 11 92 3d 46 93 94 3d
       0.04616568 -0.07540201 0.07132336 0.07254653
0000d0 15 f7 a2 3d 0c 41 72 bd 4f 81 19 3d 61 58 8f bc
       0.079572834 -0.059144065 0.037476834 -0.017498197
0000e0 35 3d 94 bd 77 97 3a bc a2 57 2b 3c b8 86 04 3e
       -0.07238237 -0.011388651 0.010457905 0.12942016
0000f0 45 fb 94 3d 0c ac 6c 3d cb 9c b6 bc 77 de 7e bd
       0.07274488 0.057781264 -0.022291562 -0.062223878
000100 64 3c 8d bd 4b c2 27 bd b8 0b e5 3b 44 0d cf bb
       -0.06896284 -0.040956777 0.0069899224 -0.00631872
000110 7b 7d b5 3d 4e af f3 bc 60 b6 80 3d 0d 02 e4 bd
       0.08861824 -0.029746678 0.06284785 -0.11133204
000120 2d 67 78 bd 87 b2 c4 b9 2c 52 64 3d 8c 24 bd 3d
       -0.06064527 -0.00037517046 0.055742428 0.092354864
000130 2b 26 1b 3c 6f fd aa 3d ca 1e 30 3d e2 9f 7f bd
       0.009469549 0.0834912 0.042998113 -0.062408336
000140 d1 5d 0e bc 7a 1d e0 bc 5d 52 a0 3d e0 28 11 3c
       -0.00868936 -0.027357806 0.078282095 0.008859843
000150 fe ec 4f 3d 47 9f ef bd 0f 58 79 bd cb b1 03 bc
       0.050763123 -0.117003016 -0.060874995 -0.008037995
000160 f0 56 eb 3b 9a 44 a6 3d e0 e8 69 bd c4 e5 1e 3d
       0.0071819946 0.081185535 -0.057106853 0.03879334
000170 fc 49 98 bd e5 57 69 bd ae 95 cb 3d 3e 58 00 3e
       -0.074359864 -0.05696859 0.099406585 0.12533662
000180 b8 b6 dc 3b 65 76 37 bd 6a 4b d2 3d f7 0c 04 3d
       0.006735649 -0.044790644 0.1026829 0.032238927
000190 b5 5e 1d bc 92 c9 81 3d a4 ac cc 3d 76 7b 99 3a
       -0.009605099 0.063372746 0.09993866 0.0011709768
0001a0 ca 7d 3a 3d 48 10 fe bc fb 9f 09 bd 45 b3 a6 bd
       0.045530118 -0.031013623 -0.033599835 -0.08139662
0001b0 86 b2 85 3c eb 0e 44 3d b6 c2 e5 bc b0 45 31 bd
       0.016320478 0.04786579 -0.028046947 -0.04327935
0001c0 7b 0b 38 bd c7 c0 93 3d 9d 4a e1 bd b3 e9 e8 bb
       -0.044932824 0.07214504 -0.110005595 -0.0071079372
0001d0 9a bd c6 3c 5d 53 af 3d d9 2d ed bb 90 16 a4 3b
       0.024260331 0.08560822 -0.0072381315 0.0050075725
0001e0 f5 d1 74 3d 0a b4 6a 3d 6c 8f af bd ab 85 bb bd
       0.059770543 0.057300605 -0.085722774 -0.091563545
0001f0 ca 17 73 3c dd af 81 bd 8c c0 c2 bc 20 cd 17 3d
       0.014837215 -0.063323714 -0.023773454 0.037060857
000200 24 7e c2 bd f8 7f a3 bb ad 57 8d bd db 1a 37 3d
       -0.09496716 -0.0049896203 -0.069014885 0.044703346
000210 13 ac ed 3b 3c bb 89 bd 50 d2 3e bd 91 aa 2c bd
       0.007253179 -0.06725165 -0.04658729 -0.042154852
000220 d3 2a 56 3d 26 26 59 3d f7 1d fc bd c5 d9 2f 3d
       0.052286934 0.053014897 -0.12310403 0.04293229
000230 7c ea 0e bd bb 47 6c 3d ef 55 b2 bd b2 2e 2c bc
       -0.03489159 0.057685595 -0.08707797 -0.01050918
000240 8a 0d 07 3d 16 55 10 3c a1 02 1a 3c 3c 58 b4 3d
       0.032971896 0.008809349 0.009400041 0.08805892
000250 3f e8 b4 3d 27 c5 cb bb 00 15 35 3d eb a2 00 3d
       0.0883336 -0.0062185708 0.04420948 0.03140537
000260 bc 43 bd 3d e8 e3 c2 3d 4e ef 85 bd d2 17 df 3a
       0.09241435 0.09516126 -0.06539784 0.0017020649
000270 77 1b 87 bd 09 04 8b bd 70 f3 4e 3d 47 5b 87 3d
       -0.065970354 -0.06787879 0.05052513 0.06609207
000280 86 8a 31 bd e6 2e a8 3d 66 6b f5 3c 64 ed ce 3d
       -0.043344997 0.0821207 0.029958438 0.101038724
000290 93 e3 64 3d 25 ba ad 3c d1 b5 bd bd 7c df ef 3c
       0.055881094 0.021206925 -0.09263194 0.02928137
0002a0 37 21 ef bd d0 d8 7e bd 83 16 16 bd fe 81 89 bd
       -0.11676257 -0.062218487 -0.036642563 -0.06714247
0002b0 70 39 38 bd 8b 90 26 3c f8 2b f8 3c 1f 4c 57 3c
       -0.04497665 0.010166298 0.030294403 0.013140707
0002c0 bf 6d 41 3d d4 90 00 3d a1 dd 81 3d 8a 61 52 3d
       0.047223803 0.03138812 0.063411005 0.05136255
0002d0 7b 25 ba bd 09 c5 97 bb 68 ef 1d bd 60 6b aa 3d
       -0.0908918 -0.0046316427 -0.038558394 0.083212614
0002e0 b9 64 4a ba 5b ed 18 3c 39 2b 21 3d 9f 25 3b bd
       -0.00077206973 0.009333934 0.03934786 -0.045690175
0002f0 78 6c 26 3c ff 5b 53 3d d0 b5 a4 3c 6b 8b 46 bd
       0.010157697 0.051601406 0.020106226 -0.048472803
000300 04 b7 88 bd 5c da 3a 3d 34 16 10 bd e0 ac 0c 3c
       -0.066755325 0.0456184 -0.035177425 0.0085861385
000310 34 8c 95 3d 12 3a 2f 3d da 85 f1 3d 98 1b 94 bd
       0.07302132 0.04277999 0.11793108 -0.072318256
000320 06 7e 95 bb 21 cf 8f 3d 2a 11 72 bb 38 a4 57 bd
       -0.0045621423 0.070219286 -0.00369365 -0.052646846
000330 d7 bf fa 3c 40 a7 18 bd df 50 6b 3d b4 ff ba bd
       0.030609054 -0.037268877 0.05745017 -0.09130803
000340 c8 fc b9 bc f5 63 4c bd 04 89 2e bd 47 25 a5 bd
       -0.022703543 -0.049900014 -0.042611137 -0.08063751
000350 a3 a3 bd bd de 28 97 3d 78 38 82 3b d9 26 b9 bb
       -0.09259727 0.07380842 0.0039740168 -0.005650383
000360 a4 42 9a 3d eb ad c7 bd ed 0a ed 3c cf 84 ac 3d
       0.07532242 -0.09749969 0.028935874 0.08423769
000370 4c da c1 3d 1f f1 30 3d a4 f7 67 39 d7 56 cf bb
       0.09465465 0.0431987 0.0002212213 -0.006327491
000380 53 b7 d1 3c c8 30 4c 3d c5 67 e8 3b 40 d0 92 3d
       0.025600111 0.04985121 0.0070924484 0.07168627
000390 04 64 6f 3d a3 fb 79 bd 18 29 72 bb 08 1b c0 bd
       0.05844499 -0.061030995 -0.0036950763 -0.09380156
0003a0 ad 57 98 bc 2c 64 b3 3c ca 6b 36 bc f4 95 47 3d
       -0.018596495 0.021898352 -0.011134097 0.04872699
0003b0 87 45 4c bd a2 62 17 3d 50 8e 21 3c 92 00 cb ba
       -0.049870994 0.036959298 0.00986059 -0.0015487841
0003c0 9b e8 5e bc ee e2 24 3c a9 9a bd 3d 23 63 9e 3c
       -0.013605262 0.01006387 0.09258015 0.019334381
0003d0 f4 c4 cd bc 1a 2c d3 bd b2 ff 19 3b 9e bd fa 3d
       -0.025118329 -0.10311146 0.0023498354 0.12243198
0003e0 57 2b b7 bd 25 cf 81 bc 08 80 b1 bc 02 a4 0d 3e
       -0.08943813 -0.015845845 -0.021667495 0.13832095
0003f0 29 7c cd bd 12 f1 73 3c d2 47 5e 3d f0 a3 30 bd
       -0.10033447 0.014889019 0.054267712 -0.043125093

F6.bias f4 [84]
000000 08 d0 52 3e 4c 74 ea 3a 75 69 44 bd 26 65 3b bd
       0.2058717 0.0017887442 -0.047952134 -0.04575076
000010 b3 08 b4 bc e9 6c 8d 3d 0a ea 2e be da 2e ca 3d
       -0.021976804 0.069055386 -0.17081466 0.098722175
000020 79 78 f6 3d 75 e6 11 be af d7 28 3e 9a 76 87 3d
       0.12034697 -0.14248069 0.16488527 0.06614418
000030 13 41 83 bd 54 20 9a 3d a7 92 c6 bc c6 cf 22 3e
       -0.06408896 0.07525697 -0.024239851 0.15899572
000040 7b 85 ae bd 39 19 7d be 79 04 cb 3a 7b 51 9a bd
       -0.08521553 -0.24716653 0.0015489004 -0.075350724
000050 67 f0 67 bd 30 6d cc bc 28 5b 0b 3d 92 cb a2 bd
       -0.05662575 -0.024954408 0.03402248 -0.07948984
000060 a8 14 85 bd bc 58 5c bb 42 cf 6b bd 38 35 9c b8
       -0.064980805 -0.0033622226 -0.057570703 -7.4485724e-05
000070 11 43 04 3d e7 12 0c 3e af 89 36 3e 31 44 51 bd
       0.032290522 0.13679086 0.1782596 -0.051090423
000080 1c f0 9f bd 7b fb b9 3d ce 11 ef bd 7e dd d1 3c
       -0.07809469 0.09081169 -0.11673318 0.025618311
000090 6e 71 7c 3d bd 03 50 bd 3e bf aa bd 4e 61 91 3d
       0.061631612 -0.050784815 -0.08337258 0.070986375
0000a0 e7 fc a1 bd 28 b3 7a 3d 18 cf 14 3e b2 8e 88 bd
       -0.079095654 0.061206013 0.14532125 -0.06667842
0000b0 92 a8 57 bc 0e a7 1e 3e 32 6a 99 bc 84 f6 10 3d
       -0.013162749 0.15493414 -0.018727396 0.035391346
0000c0 45 ab 14 3e 6f 4e 28 bc f8 36 b4 3b da 7c 04 3e
       0.14518459 -0.010272606 0.005499717 0.12938252
0000d0 59 09 39 3c 6d 77 64 3d 89 b0 86 bd 73 0d 00 be
       0.011293733 0.055777956 -0.0657664 -0.1250513
0000e0 be 9b d4 bd ea 13 85 bd 3c 88 02 39 47 aa b8 3d
       -0.10381268 -0.06497939 0.00012448517 0.09016853
0000f0 5f 71 87 bd 37 c0 a1 bd 59 cf 83 bd af f0 b8 3a
       -0.06613421 -0.0789799 -0.06436033 0.0014109815
000100 5f 2a e9 3c 1b 16 18 bc 47 9a 33 3d 21 4d 09 bd
       0.028462587 -0.009282614 0.043848302 -0.03352082
000110 d6 83 10 3e c3 27 61 3c 55 b8 21 3d 6d 3c e8 bb
       0.14112791 0.01374239 0.039482433 -0.0070872814
000120 32 01 3d 3e 86 96 d7 b9 8b 61 e6 b9 78 0a 77 be
       0.18457487 -0.00041120144 -0.00043941694 -0.24125087
000130 2f 24 86 3d 5b 02 91 bd 6e 21 17 3e 25 81 2f 3d
       0.0654987 -0.070805274 0.14758846 0.04284777
000140 25 8f c0 bd 10 97 79 3d 18 68 a5 3d 5b 3b 38 b9
       -0.09402303 0.06093508 0.08076495 -0.00017569719

output_layer.centers f4 [10, 84]
000000 9f 90 2b 3f 3a 2f e0 3e 2d ec aa 3e 3a 43 11 bf
       0.6701755 0.4378603 0.33383313 -0.56743205
000010 c6 6f c5 be f0 d7 a7 be 04 5a 09 bf be d6 5b 3e
       -0.3856184 -0.32781935 -0.5365298 0.21468636
000020 6b ec 44 3f c2 06 19 bd ab 4a 9f 3d fa cd d6 3e
       0.76923245 -0.03735996 0.07777914 0.41954023
000030 1d 9e 68 3e 29 96 85 bd 5e 91 1e be 6e 60 12 3e
       0.22716565 -0.065227814 -0.1548514 0.14294598
000040 83 6a 04 bf 34 50 48 bf f9 a1 54 be b8 41 06 bf
       -0.51725024 -0.7824738 -0.20764913 -0.5244403
000050 24 8b 12 bf 93 50 26 bf 3c 47 aa be 56 1a 51 bf
       -0.5724356 -0.64966697 -0.33257473 -0.8168081
000060 49 15 80 be 02 9f 08 3e d0 40 41 be 9b 8a e6 bd
       -0.2501624 0.13341907 -0.1887238 -0.11256906
000070 82 92 b6 bc 51 f0 1d be 9a 38 be 3e 36 bd b9 3e
       -0.022286657 -0.15423705 0.3715256 0.3627717
000080 7d d1 a2 be f1 22 15 3f 85 7f 9d be fc 22 a4 bd
       -0.31800452 0.5825644 -0.30761352 -0.08014485
000090 7f 61 79 be 5e 7b 74 be b2 30 9a 3d 7b 06 8d 3e
       -0.24353598 -0.23875186 0.07528819 0.27544007
0000a0 30 d5 6b be a3 f8 82 be 27 20 eb 3e aa c5 25 be
       -0.23030543 -0.2558032 0.45922968 -0.16188684
0000b0 45 86 ff bd 71 71 d7 bd f2 de 7e bd 44 fc 47 be
       -0.12476782 -0.10519684 -0.062224336 -0.19529825
0000c0 c3 fd b7 bd 43 eb 9e bd 96 e2 ea be 59 45 40 3f
       -0.08983948 -0.07759716 -0.45875996 0.75105816
0000d0 f5 55 53 3b 66 c8 16 3f 17 5c e2 be a6 eb 3b 3e
       0.003224728 0.58899534 -0.44210884 0.18351611
0000e0 43 46 0a 3e df 12 09 bf 85 1d 34 bd 63 c3 52 3d
       0.13503365 -0.5354442 -0.043973465 0.051455867
0000f0 fc 2a a3 be 7f a8 ff be 09 3f fb be cc f1 93 3d
       -0.31868732 -0.4993324 -0.4907153 0.072238535
000100 5b eb 5f 3d 57 a2 15 3f 19 80 f1 3d 33 8f f5 bd
       0.05466781 0.58450836 0.11792011 -0.11990204
000110 90 de d2 3e d5 28 b0 3d ea b2 ef 3d c5 68 07 be
       0.41185427 0.08601538 0.11704047 -0.1322356
000120 a8 13 13 3e c9 27 05 be 2b 49 94 3e f6 0a 64 bf
       0.14362967 -0.13003458 0.28962073 -0.89079225
000130 f2 80 02 3f e1 08 13 3e 56 a4 30 3d 14 6a 5a bd
       0.50978005 0.14358856 0.043125473 -0.05332382
000140 a8 d9 59 be 5a ca 94 be 5e f1 9a 3e d8 1f 1f 3e
       -0.21274436 -0.29060632 0.30262274 0.15539491
000150 3a 1a 09 3f d9 29 b0 3e 43 de 9f be 56 f9 52 bd
       0.53555644 0.34406927 -0.3122426 -0.051507317
000160 39 13 8d be 53 fe 90 be b2 17 21 bf 4a 8e 88 3e
       -0.27553728 -0.28319034 -0.6292678 0.26671058
000170 62 44 03 3f 71 90 aa be bd 9e 08 3f a5 05 1f 3c
       0.5127622 -0.33313325 0.53367215 0.009705936
000180 a5 99 b9 3d 2d 81 a6 bb 3d 37 5a be 28 bb 16 3f
       0.090625085 -0.005081317 -0.21310134 0.5887933
000190 7b c1 f6 be 89 73 12 be 71 b8 6c 3e b1 26 c2 be
       -0.4819449 -0.14301886 0.23117234 -0.37920144
0001a0 9c 8b 78 3c 28 aa b4 bd db 77 3b 3e f7 26 15 bf
       0.015170004 -0.08821517 0.1830744 -0.5826258
0001b0 c2 b2 38 be 62 72 7e 3d 42 8c 0f bf cf 76 fc 3e
       -0.1803694 0.062120803 -0.5607339 0.49309394
0001c0 db 33 83 3c f2 a1 9b bb 3a 12 d0 3e 67 c2 0f be
       0.016015938 -0.00474953 0.40638906 -0.14039002
0001d0 ea 26 86 be 41 17 e3 bc 85 2a 9e be b5 74 8d 3d
       -0.26201564 -0.02772105 -0.30891815 0.06907026
0001e0 bc 3b a5 be 1b e5 8f 3e b7 b4 b8 be 63 07 60 3e
       -0.32272136 0.2810448 -0.36075374 0.21877818
0001f0 21 fb 9f 3e c5 3c 71 3e 90 31 b2 3e ea c0 8d bc
       0.31246284 0.23558338 0.34803438 -0.017303903
000200 d3 57 da be bc d6 ba 3e 76 18 4b 3d de 47 2a be
       -0.4264513 0.36491954 0.049583875 -0.16628978
000210 74 a4 04 3f 18 c1 c0 be f4 6d 0c 3d 15 29 73 3e
       0.51813436 -0.3764732 0.034284547 0.2374614
000220 28 a2 58 bd 79 0e ec 3e de cc aa 3d a1 f6 cd be
       -0.05288902 0.46104792 0.083398566 -0.40227225
000230 f3 73 bd 3d 11 f3 e0 bc d1 c1 d4 be f5 27 b3 3e
       0.09250631 -0.027459653 -0.4155412 0.34991422
000240 2c ca 93 be 3e 76 36 3e 1c 01 a2 be 12 60 ab 3d
       -0.28865182 0.17818543 -0.3164147 0.08367933
000250 9a 14 7a bd d6 d0 0b 3e e8 e8 50 3d 55 22 a2 3e
       -0.061054803 0.13653883 0.051003367 0.31666818
000260 78 9e 01 3f a4 ec 7d 3d 05 cd d9 3d 1d 9b 7c be
       0.5063243 0.061993256 0.106348075 -0.24668546
000270 10 d3 10 3f 27 ad 5e 3e 42 af a2 3e 56 1a 46 bf
       0.56572056 0.2174574 0.31774336 -0.77383935
000280 e1 cf fb 3e 27 97 72 be 5d d9 19 3f 7c 3d e9 3e
       0.49182037 -0.23690473 0.60097295 0.4555472
000290 47 dc 74 be f6 4b b2 3e 14 21 dc bd 96 52 b5 be
       -0.23912154 0.3482358 -0.10748497 -0.3541457
0002a0 90 55 14 3f e9 5a 32 3e b3 57 90 3e b4 bd 94 be
       0.5794306 0.17417492 0.2819191 -0.29050982
0002b0 95 bd aa be 59 00 5f be 25 5e ea be 83 9c e3 bd
       -0.33347765 -0.21777476 -0.45774952 -0.111138366
0002c0 e0 33 0d 3f 5e 62 48 be 9c 47 03 be 19 49 8f 3e
       0.5515728 -0.19568774 -0.12820286 0.27985457
0002d0 5e df 3e 3e c8 b6 28 3e 98 e2 98 3d 28 d0 80 3e
       0.18639895 0.16475976 0.07465094 0.2515881
0002e0 b9 4b d4 be 3f e0 87 be 79 a4 2e 3e 99 f1 a4 be
       -0.41464022 -0.26538274 0.17054929 -0.32215574
0002f0 09 17 a2 be ae 46 11 bf 4a e4 fe bd ec 16 13 bf
       -0.316582 -0.56748474 -0.124458864 -0.5745685
000300 2a 70 50 3d 1e 0d 03 3d 54 e5 82 be c6 89 9e 3e
       0.050888218 0.03199493 -0.25565588 0.30964488
000310 81 bc 8e bd 91 ed d4 bd b8 06 52 3e d9 55 fe 3d
       -0.06969548 -0.10396875 0.20510375 0.12418718
000320 fd dd 26 be 57 d8 29 3d c8 7c 8f 3d 19 0c ae 3d
       -0.1629562 0.041466083 0.07006222 0.08498401
000330 fe f8 94 be 5b 0e a4 3d 4b c5 6d be ad 89 59 3e
       -0.29096216 0.080105506 -0.23219793 0.21243925
000340 2c 6c f7 3d 4b 59 e3 3d 65 aa 0e bd 87 e3 60 3e
       0.12081179 0.11101016 -0.03483047 0.21961795
000350 e5 dd f4 be 64 71 e4 bd 07 9e 8e 3e 84 ac 85 bc
       -0.47825542 -0.1115444 0.2785494 -0.016317613
000360 3d 5e 57 3e a1 a4 e2 be 8c 05 83 bd 5e a2 dd 3e
       0.21032043 -0.44266227 -0.06397542 0.4328794
000370 50 3d 91 3c 52 b4 05 3f 72 bb 86 be e5 dc e9 3d
       0.017729431 0.5222827 -0.26314884 0.114190854
000380 33 92 3a 3e dd 4b 60 be 3e 5f 20 be 5d 74 03 3d
       0.18219833 -0.2190394 -0.15661332 0.032093395
000390 42 f2 61 be 93 7a f3 bd 25 b7 5e be 0c 5e 35 3e
       -0.2206507 -0.118886136 -0.21749552 0.17711657
0003a0 bd 09 05 be 93 3e c3 3e a5 d6 a3 3d e3 70 83 3d
       -0.12991996 0.38133678 0.079999246 0.06418016
0003b0 53 ca d9 3e 74 d4 ae bd 5e 61 f4 3c 08 0b b7 be
       0.42537174 -0.08536616 0.029831585 -0.35750604
0003c0 9b 1e a4 3e df 4d 80 3d 6e 5b 41 3e 14 bb 39 bf
       0.320546 0.06264853 0.18882534 -0.72551084
0003d0 84 94 d9 3e b0 26 23 3e dd e1 96 3e 0b 04 48 bd
       0.4249612 0.15932727 0.29469195 -0.04883198
0003e0 81 a2 35 bd 96 08 b5 bc a4 48 7f 3d 7c 22 25 be
       -0.04434443 -0.02209882 0.062325135 -0.16126436
0003f0 50 84 0f 3f aa 88 ea 3e 04 51 26 3e 19 71 bf be
       0.5606127 0.4580739 0.16241843 -0.37390974
