saved/model_1.pth (torch, 251567 bytes, 13 tensors)

C1.conv.weight f4 [6, 1, 5, 5]
-0.18614376 -0.033081155 -0.046002965 0.14068154 -0.060840055 -0.14715296 0.16404869 -0.012830377
-0.097310774 0.13168195 -0.19466136 -0.059803557 0.121235594 -0.11917148 -0.19759284 -0.2489797
0.081933394 -0.085006125 0.0053205164 -0.001756345 -0.04323698 -0.1905107 0.081848636 0.19298361
0.21158148 0.23981336 -0.08086621 -0.32978207 0.032650508 0.18310519 0.0630804 -0.26110536
-0.54086787 -0.1673528 0.26594412 -0.1086145 -0.16646533 -0.3219137 -0.23644519 0.222594
0.07443551 -0.3095633 -0.21066332 -0.11371441 -0.101959415 -0.24674423 -0.54211456 -0.118749894
-0.04664209 0.19627717 0.59268343 0.3031186 -0.019741625 0.30833256 0.69836396 0.28935802
0.12129548 -0.061698068 0.04979 0.08141942 -0.021365175 -0.14012633 -0.17922644 -0.13276118
-0.39041173 -0.6815799 -0.49660996 -0.26706725 -0.26332033 -0.34991565 -0.46440583 -0.1102657
-0.20522785 -0.04136511 -0.4142326 0.013058963 -0.25777802 -0.18974942 0.15122922 0.06919822
-0.17842528 -0.12545869 -0.092240945 0.24774402 0.20196061 0.030798221 -0.15914558 0.17585123
0.2311569 0.44429523 0.15824263 0.121916674 0.1361207 0.309531 0.06464478 -0.05695121
-0.087260656 0.15072554 -0.23284595 -0.081018604 -0.35863242 -0.28547165 0.0039332197 -0.15973726
0.16591172 -0.34395644 -0.29075706 -0.40080234 0.025120137 0.009211292 0.09448275 -0.08322155
0.026101978 0.0056225825 -0.2775049 0.15344714 0.44064698 0.070780076 0.20373389 0.005350402
0.055635702 0.23542972 0.2677029 -0.09048254 -0.35240316 0.4660276 0.030749723 0.122758165
0.42140996 0.20030206 0.30827594 0.24056977 0.1960139 0.3775344 -0.23168652 0.029004969
0.35115725 0.27732936 -0.15560411 -0.49505785 -0.019253423 -0.021265373 -0.06831693 0.022886211
-0.3367695 -0.4902104 -0.23591177 -0.40214103 -0.24647315 0.06259383
00000000: 789c 3ebe 1b80 07bd 9b6d 3cbd d20e 103e
00000010: 6c33 79bd 44af 16be 61fc 273e 8036 52bc
00000020: df4a c7bd a2d7 063e 4f55 47be 93f4 74bd
00000030: 5e4a f83d 2d10 f4bd c755 4abe 89f4 7ebe
00000040: b2cc a73d b117 aebd ba57 ae3b 2935 e6ba
00000050: 4219 31bd 3d15 43be 42a0 a73d 7f9d 453e
00000060: d1a8 583e a291 753e 2f9d a5bd 32d9 a8be
00000070: 8abc 053d ed7f 3b3e 4c30 813d 9aaf 85be
00000080: 5176 0abf 885e 2bbe d429 883e 4771 debd
00000090: e375 2abe dfd1 a4be b01e 72be aeef 633e
000000a0: a571 983d 157f 9ebe 20b8 57be 1ae3 e8bd
000000b0: 19d0 d0bd 85aa 7cbe 05c8 0abf 2533 f3bd
000000c0: c70b 3fbd e2fc 483e 1aba 173f 5c32 9b3e
000000d0: 30b9 a1bc c4dd 9d3e fbc7 323f bc26 943e
000000e0: c469 f83d 1db7 7cbd 99f0 4b3d 3abf a63d
000000f0: 0506 afbc 477d 0fbe 2387 37be 8cf2 07be
00000100: 0ce4 c7be 057c 2ebf a943 febe 0abd 88be
00000110: ecd1 86be 2528 b3be 9ac6 edbe fcd2 e1bd
00000120: 4027 52be 766e 29bd 4c16 d4be 43f5 553c
00000130: 7bfb 83be ac4d 42be d5db 1a3e ccb7 8d3d
00000140: 1eb5 36be 3e78 00be d2e8 bcbd 9cb0 7d3e
00000150: c3ce 4e3e 8d4c fc3c 0ff7 22be 5812 343e
00000160: 65b4 6c3e aa7a e33e 5b0a 223e 73af f93d
00000170: 3a63 0b3e d97a 9e3e 7b64 843d ac45 69bd
00000180: b7b5 b2bd cc57 1a3e 2b6f 6ebe 15ed a5bd
00000190: ab9e b7be 5729 92be 3de2 803b 2a92 23be
000001a0: c3e4 293e 0f1b b0be 1cde 94be f735 cdbe
000001b0: bfc8 cd3c f5ea 163c 2c80 c13d 0f70 aabd
000001c0: d1d3 d53c a43d b83b 1f15 8ebe 3f21 1d3e
000001d0: 7b9c e13e 25f5 903d 9e9f 503e 6d52 af3b
000001e0: 43e2 633d 7d14 713e 5b10 893e e94e b9bd
000001f0: 306e b4be 2b9b ee3e d8e6 fb3c a268 fb3d
00000200: 0cc3 d73e fc1b 4d3e 58d6 9d3e ec57 763e
00000210: deb7 483e 304c c13e 3b3f 6dbe d49b ed3c
00000220: e2ca b33e 1dfe 8d3e af56 1fbe 3978 fdbe
00000230: 5bb9 9dbc b834 aebc bfe9 8bbd dd7b bb3c
00000240: 0d6d acbe dcfc fabe db92 71be 6ee5 cdbe
00000250: 7563 7cbe 3231 803d

C1.conv.bias f4 [6]
0.36576194 0.18665045 -0.058596145 -0.65459585 0.18014011 0.17249207
00000000: 2645 bb3e 4c21 3f3e 8302 70bd 9893 27bf
00000010: a676 383e c3a1 303e

S2.multiply_coefficient_add_bias.weight f4 [6, 1, 1, 1]
-0.49339816 -0.98012954 -1.426154 1.143531 -1.1622419 -1.3382218
00000000: af9e fcbe c5e9 7abf 378c b6bf 395f 923f
00000010: 58c4 94bf da4a abbf

S2.multiply_coefficient_add_bias.bias f4 [6]
-0.27213278 -0.9855203 -1.017391 -1.0713187 0.78199893 -0.11399823
00000000: fd54 8bbe 0f4b 7cbf de39 82bf f920 89bf
00000010: 1531 483f e777 e9bd

C3.conv.weight f4 [16, 6, 5, 5]
-0.06567682 -0.06495271 -0.06592906 -0.00028889178 0.004850975 0.053634237 -0.074819416 0.017986337
0.019628754 0.08286557 0.004480972 0.019168114 -0.048538245 0.026722148 -0.037156675 0.034088623
-0.012259803 0.06043312 -0.01684567 0.060893383 -0.0030040324 0.015212852 -0.04737009 0.02930039
-0.03230922 -0.06098146 -0.0019030005 -0.027840745 0.061683282 0.2022822 -0.004302725 0.043511856
0.074929446 0.038787246 0.18038833 0.08356404 0.025676996 -0.011750956 0.010974699 0.1148301
0.11672104 0.04852497 0.117947705 0.028125152 0.0036976787 0.07041597 0.11567741 -0.03814984
0.07276717 -0.03983018 0.023121674 -0.10135261 -0.0014881885 -0.010877946 0.072371885 0.019756842
-0.0756737 -0.07004223 -0.030846713 0.04406216 0.018880967 -0.058950994 -0.064476706 0.036582537
0.014812349 0.09229288 -0.06516804 -0.06989014 -0.0043994486 -0.0147745665 -0.018287497 0.06444811
0.02419061 0.01536843 0.09341125 -0.08204747 0.05144494 -0.02985268 0.071532935 0.005369269
0.06067191 -0.019463874 -0.011101596 0.07471311 0.06252939 0.060276043 0.045182813 -0.05823449
-0.017710038 -0.01837004 -0.007909053 -0.07767052 -0.091408744 -0.09997658 -0.066770025 0.059828393
-0.04028723 -0.021481693 -0.015452733 -0.067098476 -0.028927032 -0.04156551 0.050127815 0.06175461
0.0036272833 -0.006217596 0.0396985 -0.05649519 -0.03816889 -0.0081377 0.055021364 0.06761604
-0.034503534 -0.04775127 0.08615808 0.005690965 -0.05858171 -0.09041888 0.02760826 0.024777183
-0.033517554 -0.0033389379 -0.07548607 -0.00806104 -0.06509749 -0.07566879 -0.07478184 -0.068213284
0.09151953 0.11602118 -0.08907282 -0.07053617 0.08667814 0.033447 0.016276028 -0.07843873
-0.038993318 -0.07544543 0.036305357 -0.05305821 -0.093231626 -0.05465272 0.04389623 0.03645783
0.079184145 -0.080482505 0.030921368 -0.0566538 0.059501987 0.054319087 -0.106077455 0.039613202
-0.06585345 -0.02697702 -0.030159434 -0.08014828 -0.07304191 -0.075893454 -0.08254264 -0.040558506
0.009059513 -0.060379997 -0.08897517 0.0066272053 0.029080579 0.011684223 0.049821656 -0.05816743
-0.049864918 -0.015506756 -0.04407231 -0.09597575 0.024745798 -0.11117334 -0.099011675 0.0202426
-0.06715757 -0.043585062 -0.021293031 -0.043207 -0.055052083 -0.039968513 0.03798377 0.05217343
0.049075395 -0.058899794 0.012408536 0.012601857 0.045375977 -0.060080443 -0.09378193 -0.052705772
-0.066238776 0.055566367 0.0065358696 0.036955427 -0.06082073 -0.02846339 0.0351736 -0.03928094
0.012420153 -0.06499086 -0.03655024 -0.0716432 -0.040129963 -0.07998032 0.028055608 0.014913936
-0.02742707 -0.0010600793 0.037257433 -0.035588898 0.013136148 -0.082200885 0.035092123 -0.059908938
0.04300665 -0.049091637 0.041394975 -0.0792686 -0.01885778 -0.047276706 0.025579788 -0.008064597
-0.07123286 -0.05816561 -0.0018114984 0.06331485 -0.0613568 0.052376583 -0.083541945 0.014624662
-0.030864198 0.052998338 -0.024466263 0.033178266 -0.05306443 -0.060461443 -0.09398465 0.030090913
-0.041485187 -0.0003750647 -0.053255983 0.024179475 0.046859745 0.015554014 -0.048269495 -0.08208174
-0.014420095 -0.080422826 -0.11794597 -0.049668502 -0.045783825 -0.07689732 -0.058691222 -0.08249115
00000000: 9281 86bd ed05 85bd d105 87bd 6676 97b9
00000010: edf4 9e3b 93af 5b3d ec3a 99bd 1558 933c
00000020: 7bcc a03c 6db5 a93d 1ed5 923b 7306 9d3c
00000030: 0ad0 46bd 68e8 da3c 9931 18bd 83a0 0b3d
00000040: 57dd 48bc b888 773d eeff 89bc 576b 793d
00000050: 4ddf 44bb 533f 793c 2407 42bd 5f07 f03c
00000060: ac56 04bd b2c7 79bd 1a6e f9ba 4612 e4bc
00000070: 9ca7 7c3d 1123 4f3e e0fd 8cbb 7d39 323d
00000080: 9c74 993d 60df 1e3d b8b7 383e a023 ab3d
00000090: 9058 d23c 1587 40bc 39cf 333c 0b2c eb3d
000000a0: 710b ef3d 1ec2 463d 918e f13d b866 e63c
000000b0: c154 723b 4036 903d 47e8 ec3d 0243 1cbd
000000c0: f406 953d f924 23bd aa69 bd3c f591 cfbd
000000d0: 520f c3ba 6a39 32bc b637 943d 1ad9 a13c
000000e0: d0fa 9abd 4d72 8fbd 3fb2 fcbc 867a 343d
000000f0: 42ac 9a3c 9976 71bd 5d0c 84bd 92d7 153d
00000100: 7faf 723c 0d04 bd3d d276 85bd 9022 8fbd
00000110: 4029 90bb 0611 72bc a9cf 95bc 5ffd 833d
00000120: 632b c63c decb 7b3c 664e bf3d 8108 a8bd
00000130: eeb7 523d 9c8d f4bc dc7f 923d b1f0 af3b
00000140: 1c83 783d b472 9fbc 78e3 35bc 3003 993d
00000150: 690f 803d 03e4 763d 9d11 393d 4a87 6ebd
00000160: a414 91bc c47c 96bc f994 01bc b911 9fbd
00000170: 8234 bbbd 85c0 ccbd b9be 88bd 9e0e 753d
00000180: 3904 25bd 60fa afbc 762d 7dbc ed6a 89bd
00000190: 62f8 ecbc 9940 2abd d352 4d3d 67f2 7c3d
000001a0: b7b7 6d3b fabc cbbb e59a 223d 8067 67bd
000001b0: fb56 1cbd fd53 05bc 155e 613d 477a 8a3d
000001c0: 9453 0dbd d696 43bd a673 b03d 467b ba3b
000001d0: 60f3 6fbd 892d b9bd b82a e23c 85f9 ca3c
000001e0: b449 09bd 15d2 5abb 7198 9abd 7412 04bc
000001f0: d551 85bd 3df8 9abd 3927 99bd 68b3 8bbd
00000200: 976e bb3d 839c ed3d d06b b6bd 4475 90bd
00000210: 4f84 b13d b9ff 083d 4e55 853c 7ca4 a0bd
00000220: 75b7 1fbd 2283 9abd edb4 143d 9153 59bd
00000230: 39f0 bebd 88db 5fbd 89cc 333d ce54 153d
00000240: 4c2b a23d 03d4 a4bd cf4e fd3c d10d 68bd
00000250: 5bb8 733d b17d 5e3d 233f d9bd 7441 223d
00000260: 2cde 86bd e9fe dcbc eb10 f7bc c824 a4bd
00000270: ff96 95bd 076e 9bbd 1e0c a9bd ad20 26bd
00000280: 5a6e 143c 0451 77bd 9d38 b6bd 0729 d93b
00000290: 653a ee3c 2f6f 3f3c cb11 4c3d f940 6ebd
000002a0: 283f 4cbd 0c10 7ebc 2b85 34bd ef8e c4bd
000002b0: b3b7 ca3c d9ae e3bd a2c6 cabd cfd3 a53c
000002c0: e889 89bd 4086 32bd b96e aebc d3f9 30bd
000002d0: 4b7e 61bd 06b6 23bd df94 1b3d ceb3 553d
000002e0: 4803 493d e940 71bd 2c4d 4b3c 0578 4e3c
000002f0: 29dc 393d e916 76bd be10 c0bd 02e2 57bd
00000300: 32a8 87bd 8f99 633d d92a d63b 935e 173d
00000310: 281f 79bd 0e2c e9bc 3112 103d 0de5 20bd
00000320: e67d 4b3c ee19 85bd b4b5 15bd acb9 92bd
00000330: 515f 24bd b9cc a3bd e0d4 e53c 9559 743c
00000340: bcae e0bc 5cf2 8aba 409b 183d aac5 11bd
00000350: 0039 573c f058 a8bd c2bc 0f3d 1363 75bd
00000360: be27 303d 5014 49bd c78d 293d 9357 a2bd
00000370: a27b 9abc 38a5 41bd b48c d13c 5f21 04bc
00000380: 89e2 91bd 103f 6ebd cd6f edba 37ab 813d
00000390: 4551 7bbd d488 563d 0a18 abbd 479c 6f3c
000003a0: ead6 fcbc c914 593d 796d c8bc efe5 073d
000003b0: 165a 59bd 6ba6 77bd 067b c0bd 3881 f63c
000003c0: 5fec 29bd 55a4 c4b9 f222 5abd 0914 c63c
000003d0: 01f0 3f3d 43d6 7e3c 3cb6 45bd 791a a8bd
000003e0: 4342 6cbc b9b4 a4bd a88d f1bd 3371 4bbd
000003f0: d287 3bbd 587c 9dbd 3566 70bd 1ff1 a8bd

C3.conv.bias f4 [16]
0.049044657 -0.060786415 -0.12988098 0.060502943 -0.10881076 0.0867623 -0.019617863 -0.08559435
0.075546496 -0.06216848 -0.011502319 -0.058670692 0.054057475 0.13923104 0.025809059 -0.06366139
00000000: 0de3 483d 2dfb 78bd 85ff 04be efd1 773d
00000010: 2dd8 debd 6fb0 b13d a4b5 a0bc 174c afbd
00000020: 1fb8 9a3d 60a4 7ebd 3974 3cbc ae50 70bd
00000030: 5f6b 5d3d 9592 0e3e 856d d33c e760 82bd

S4.multiply_coefficient_add_bias.weight f4 [16, 1, 1, 1]
0.38649377 0.7779241 0.79469746 -0.6227785 0.5697828 -0.9336233 0.57747585 0.4934774
0.50801706 -0.6632562 0.94934386 0.8838209 -0.8310836 -0.92066276 -0.46330112 0.62404954
00000000: 83e2 c53e 0926 473f 4b71 4b3f 696e 1fbf
00000010: 49dd 113f f001 6fbf 75d5 133f 12a9 fc3e
00000020: 680d 023f 29cb 29bf 3308 733f 1642 623f
00000030: e5c1 54bf 8eb0 6bbf ce35 edbe b6c1 1f3f

S4.multiply_coefficient_add_bias.bias f4 [16]
-0.7375801 -0.103184775 -0.7880461 0.15066467 -0.68531066 0.06123764 0.59148884 -0.57643247
0.005217957 0.47265393 0.08934644 -0.5380858 0.103056446 0.09472261 0.7580027 -0.8992861
00000000: 0dd2 3cbf 8a52 d3bd 64bd 49bf d747 1a3e
00000010: 8570 2fbf 52d4 7a3d d06b 173f 1491 13bf
00000020: 65fb aa3b b2ff f13e 44fb b63d febf 09bf
00000030: 420f d33d eefd c13d 770c 423f 9d37 66bf

C5.conv.weight f4 [120, 16, 5, 5]
-0.030674987 -0.0008675436 0.00058876874 0.024215167 -0.013549348 1.6548676e-05 -0.011884405 0.032854103
0.00087905565 0.03093799 -0.023692185 -0.034755807 0.038001638 0.021113833 0.04352255 -0.027835893
0.037370298 -0.013337061 0.0005317025 0.031146955 0.0103235 -0.010288481 -0.009202415 -0.004278734
0.020104926 -0.024275227 0.026664704 -0.04007939 -0.017900398 -0.0356021 -0.048196357 -0.031824246
-0.053549368 0.02621111 -0.03477574 -0.05491391 -0.048041545 0.012985862 -0.029748136 -0.056060802
-0.019756835 -0.034148447 -0.017849868 0.022082437 -0.031802244 0.025171606 -0.015070527 -0.042549253
0.02392929 0.040276803 -0.026173318 -0.027951345 0.0023220552 0.00570498 -0.0049938248 -0.0049722954
-0.017283173 0.0035757045 -0.037925724 -0.020208534 0.006042233 -0.036982387 0.02839648 -0.011524441
-0.027221266 0.024512576 -0.03532712 -0.06131347 0.0041140933 0.016328951 0.0022253531 -0.051081665
0.003367356 0.016739838 0.030729778 -0.045009207 -0.03838766 -0.03005442 -0.058489148 -0.03642756
0.044753272 -0.019467628 -0.002851925 -0.044008743 -0.011771194 0.016946036 -0.018168885 -0.009008861
0.06339371 0.008000831 0.009867404 -0.06195231 -0.056204136 0.043883324 -0.011966762 0.013398201
0.032163717 0.04880433 0.02140674 -0.012059584 0.0019856999 -0.05272149 -0.03720501 0.0063975086
0.0018302777 -0.00028074285 0.0005442958 -0.043978278 0.008089498 0.017321633 -0.032271266 -0.018741947
-0.03435532 -0.058154624 -0.024187734 -0.02653796 -0.026848478 -0.05284713 -0.037919767 -0.035203867
-0.018042315 -0.042346597 -0.047602795 0.03450156 0.018998755 0.004198797 0.030276855 0.022478595
0.012522904 0.0061170007 -0.0366961 -0.00510242 0.016541716 -0.0025673187 -0.014643478 -0.007637968
0.005233302 -0.05020395 -0.05952429 -0.03331897 -0.05340058 0.0015642873 0.024248186 0.024766417
-0.03431876 0.01446941 -0.025194982 -0.024078043 0.0019915998 0.0076693543 0.038914915 0.054392017
0.0134669645 -0.023984037 -0.004689233 -0.032845672 -0.022231547 -0.012662215 0.0035395601 -0.04833664
-0.04281072 0.0042227665 0.01693809 -0.0007648043 0.03134674 -0.0256838 0.02521991 -0.004922409
-0.035459623 -0.08514332 0.0076594567 -0.034849364 -0.054633666 -0.043431535 0.0034906226 0.025984053
-0.03557968 -0.048151515 0.010820362 -0.0053612115 -0.026852593 -0.00073656027 -0.0051765693 0.0095697725
-0.022181695 -0.0008622085 -0.03491351 -0.008413519 0.0010249186 -0.020760182 -0.039280035 0.02207853
0.012613165 -0.021618916 0.008600409 -0.047167942 -0.041465893 -0.009248427 0.030614419 0.028496083
-0.049007356 -0.032079827 -0.007230669 0.011013053 -0.09747621 -0.022320932 -0.017568948 -0.023179214
0.021494271 -0.15838633 0.015411773 -0.048741173 0.030242939 -0.034012675 0.04786006 -0.014697549
-0.03718493 0.0013899317 0.029671207 -0.030450849 -0.00015580315 0.0110844625 0.020683525 -0.012305296
0.023899293 -0.0015942656 0.026964577 -0.009858705 0.005916775 0.020809155 -0.04371734 0.027164146
-0.01622793 -0.028625337 0.00028872376 -0.013317237 0.04370375 -0.036426794 -0.019078236 0.024544658
0.049566083 -0.042756338 -0.031585697 0.029985046 0.013648577 -0.008781157 0.035085108 0.0029968407
-0.03678559 0.005948003 -0.004637206 -0.015463737 -0.007174385 0.035578962 0.007914764 -0.0072022155
00000000: 1c4a fbbc de6b 63ba 9a57 1a3a e35e c63c
00000010: 16fe 5dbc 03d2 8a37 cfb6 42bc 0692 063d
00000020: 6d70 663a ab71 fd3c 1d16 c2bc 1b5c 0ebd
00000030: 9ba7 1b3d ebf6 ac3c b444 323d 1908 e4bc
00000040: 9911 193d b083 5abc f361 0b3a e627 ff3c
00000050: e623 293c 0491 28bc bac5 16bc 9f34 8cbb
00000060: 16b3 a43c d7dc c6bc f06f da3c 492a 24bd
00000070: dba3 92bc 82d3 11bd 8b69 45bd 245a 02bd
00000080: 9556 5bbd afb8 d63c 0271 0ebd 68ed 60bd
00000090: 36c7 44bd a7c2 543c 5db2 f3bc 03a0 65bd
000000a0: 16d9 a1bc 3edf 0bbd e339 92bc 3ae6 b43c
000000b0: 1243 02bd af34 ce3c 5fea 76bc 2048 2ebd
000000c0: 5c07 c43c 4af9 243d 6d69 d6bc 38fa e4bc
000000d0: 9f2d 183b d7f0 ba3b 3da3 a3bb a3ee a2bb
000000e0: 7195 8dbc 5e56 6a3b 0158 1bbd 5e8c a5bc
000000f0: edfd c53b d87a 17bd bc9f e83c 02d1 3cbc
00000100: 22ff debc 99ce c83c 2cb3 10bd d523 7bbd
00000110: 84cf 863b 4bc4 853c 3bd7 113b 023b 51bd
00000120: dcae 5c3b fc21 893c 04bd fb3c 935b 38bd
00000130: 613c 1dbd b034 f6bc 5192 6fbd 1135 15bd
00000140: 354f 373d 937a 9fbc 5de7 3abb 8342 34bd
00000150: f7db 40bc 6ad2 8a3c ead6 94bc e799 13bc
00000160: 90d4 813d eb15 033c e4aa 213c b5c1 7dbd
00000170: 4f36 66bd 00bf 333d 3d10 44bc 2184 5b3c
00000180: 1abe 033d 0de7 473d 305d af3c 9095 45bc
00000190: 8422 023b 7df2 57bd 4864 18bd 31a2 d13b
000001a0: eee5 ef3a ab30 93b9 13af 0e3a 9122 34bd
000001b0: d089 043c 19e6 8d3c e02e 04bd b688 99bc
000001c0: 2ab8 0cbd 8b33 6ebd 5b25 c6bc 2366 d9bc
000001d0: 57f1 dbbc 3b76 58bd c251 1bbd ee31 10bd
000001e0: 7acd 93bc a073 2dbd 26fb 42bd 8251 0d3d
000001f0: 47a3 9b3c 1096 893b 2b07 f83c 0825 b83c
00000200: de2c 4d3c 1f71 c83b a64e 16bd 3432 a7bb
00000210: 7e82 873c 7640 28bb 33eb 6fbc eb47 fabb
00000220: 1e7c ab3b a8a2 4dbd becf 73bd 7979 08bd
00000230: 91ba 5abd c608 cd3a 22a4 c63c f1e2 ca3c
00000240: d491 0cbd 1b11 6d3c b565 cebc 513f c5bc
00000250: 8085 023b 354f fb3b 3f65 1f3d 2aca 5e3d
00000260: 8ba4 5c3c 2c7a c4bc 23a8 99bb 2f89 06bd
00000270: ef1e b6bc 2e75 4fbc f7f7 673b a4fc 45bd
00000280: 4b5a 2fbd 225f 8a3b c0c1 8a3c 267d 48ba
00000290: 7065 003d d566 d2bc fc99 ce3c 294c a1bb
000002a0: 1c3e 11bd 9f5f aebd 2efc fa3b 35be 0ebd
000002b0: 8dc7 5fbd 44e5 31bd eec2 643b 82dc d43c
000002c0: 00bc 11bd 863a 45bd e347 313c 1aad afbb
000002d0: f8f9 dbbc b915 41ba 36a0 a9bb 89ca 1c3c
000002e0: 63b6 b5bc d505 62ba 7801 0fbd dbd8 09bc
000002f0: 9056 863a 4211 aabc 1ae4 20bd 09de b43c
00000300: 73a7 4e3c 271a b1bc bbe8 0c3c 2c33 41bd
00000310: 24d8 29bd b786 17bc 17cb fa3c 9e70 e93c
00000320: f0bb 48bd 2366 03bd 3fef ecbb 1870 343c
00000330: 9ba1 c7bd 63da b6bc c1ec 8fbc 56e2 bdbc
00000340: c114 b03c 0730 22be a981 7c3c d3a4 47bd
00000350: 0ac0 f73c e050 0bbd e908 443d fdcd 70bc
00000360: 3a4f 18bd 5e2e b63a 0811 f33c 0f74 f9bc
00000370: 175f 23b9 9b9b 353c 7f70 a93c 279c 49bc
00000380: 73c8 c33c adf6 d0ba d1e4 dc3c 6886 21bc
00000390: 82e1 c13b f677 aa3c f410 33bd 5887 de3c
000003a0: 70f0 84bc af7f eabc d95f 9739 8a30 5abc
000003b0: b402 333d 4334 15bd f649 9cbc e111 c93c
000003c0: ce05 4b3d 4521 2fbd 0160 01bd 33a3 f53c
000003d0: 489e 5f3c d8de 0fbc 67b5 0f3d a566 443b
000003e0: 7dac 16bd 77e7 c23b b4f3 97bb 9d5b 7dbc
000003f0: 1a17 ebbb 3fbb 113d edac 013c 9000 ecbb

C5.conv.bias f4 [120]
0.01433152 -0.008976898 -0.10145409 0.051369313 0.030721234 0.09429036 -0.033204757 -0.044891283
-0.008065183 -0.044094823 0.07074641 0.033357866 0.04633395 0.00177867 0.0333507 -0.0036850474
0.015702398 -0.029420584 0.035562538 0.017607644 -0.028161746 0.055298246 0.056960963 -0.04072687
-0.026853003 0.01691884 0.046323802 -0.02039371 -0.033190876 0.016817158 0.016600078 -0.009095256
0.07453702 0.00012464827 0.0702045 0.09253942 0.121257156 -0.014726116 -0.07072131 0.050194416
0.05068052 -0.04774681 -0.05227505 0.041857004 0.008419429 -0.044498894 0.026219461 -0.0036029946
0.031147407 0.044942386 0.015756382 -0.015699351 -0.041735966 0.0017493734 0.041010983 -0.06840806
0.012362642 -0.038639523 0.110761225 -0.050754663 0.041548204 -0.02408301 -0.07644293 0.0024055091
0.037780058 -0.01961317 -0.0451006 -0.0009052068 -0.05236352 -0.064485125 0.040309627 0.13681218
-0.00040849522 0.027778953 0.025549926 -0.04390027 -0.007830596 -0.015235444 -0.0015203537 0.017517544
0.08097713 -0.10574911 -0.035061814 -0.07953983 0.026687885 -0.05407481 -0.022512842 -0.048047174
0.038224373 0.017799888 -0.17312157 -0.03751677 0.026158316 -0.08785392 0.028032891 0.061856516
0.017343557 -0.010259827 0.011394841 -0.034181125 -0.03169424 0.10923592 0.1138777 -0.10576057
-0.0065954574 -0.09444725 -0.039347872 0.055698775 -0.0029421707 0.07404103 0.03584856 -0.038711432
-0.09059665 -0.08698472 0.003118231 -0.040150993 -0.08139777 0.039520018 0.026158456 -0.059881598
00000000: c0ce 6a3c d713 13bc 29c7 cfbd a168 523d
00000010: 19ab fb3c 4e1b c13d b601 08bd ecdf 37bd
00000020: d423 04bc c69c 34bd 7ee3 903d 42a2 083d
00000030: abc8 3d3d 4322 e93a be9a 083d d680 71bb
00000040: 51a2 803c 7003 f1bc 06aa 113d e83d 903c
00000050: 76b3 e6bc 6a80 623d e64f 693d 38d1 26bd
00000060: d4fa dbbc 6199 8a3c 07be 3d3d b610 a7bc
00000070: 28f3 07bd 23c4 893c e3fc 873c 4504 15bc
00000080: dda6 983d 04b4 0239 60c7 8f3d 4f85 bd3d
00000090: ac55 f83d cf45 71bc 56d6 90bd a998 4d3d
000000a0: 6096 4f3d 2992 43bd 5d1e 56bd 4072 2b3d
000000b0: a5f1 093c 7944 36bd 32ca d63c 3820 6cbb
000000c0: d928 ff3c 8215 383d 8713 813c ed9b 80bc
000000d0: 55f3 2abd 3b4b e53a 22fb 273d 8619 8cbd
000000e0: ae8c 4a3c 7a44 1ebd c8d6 e23d 1fe4 4fbd
000000f0: 732e 2a3d bc49 c5bc 1c8e 9cbd bfa5 1d3b
00000100: 43bf 1a3d ccab a0bc 68bb 38bd 664b 6dba
00000110: 217b 56bd c710 84bd b51b 253d 7e18 0c3e
00000120: 4d2b d6b9 b090 e33c 144e d13c c5d0 33bd
00000130: e64b 00bc 159e 79bc 9b46 c7ba f480 8f3c
00000140: 56d7 a53d fd92 d8bd fa9c 0fbd c7e5 a2bd
00000150: 8da0 da3c 8c7d 5dbd da6c b8bc 1dcd 44bd
00000160: 2991 1c3d 12d1 913c c846 31be 2fab 19bd
00000170: f749 d63c c2ec b3bd 3ca5 e53c 425d 7d3d
00000180: 1314 8e3c d518 28bc 6db1 3a3c 8201 0cbd
00000190: d2d1 01bd 15b7 df3d b638 e93d ff98 d8bd
000001a0: b51e d8bb 8f6d c1bd 3c2b 21bd 6624 643d
000001b0: 6fd1 40bb d3a2 973d f1d5 123d e18f 1ebd
000001c0: bd8a b9bd 0b25 b2bd 3c5b 4c3b 5e75 24bd
000001d0: e0b3 a6bd bedf 213d 424a d63c 6846 75bd

F6.weight f4 [84, 120]
-0.023594514 -0.04409106 0.07344597 0.028889166 0.04440964 -0.060772616 -0.008325755 -0.08894508
0.0402857 -0.01956812 -0.047556642 -0.032943867 0.10481519 0.046402674 -0.023542112 -0.08930197
0.048714448 0.012800782 0.010632692 -0.0069904877 -0.035960946 -0.022507008 0.044527918 0.0464666
0.0036649958 0.025378741 0.0284528 0.047603812 0.032648213 0.011058204 0.054251466 -0.010012975
-0.068406194 0.0532844 0.08383229 -0.0019756723 0.0022329178 0.06823062 -0.06708252 -0.005392505
-0.030179473 -0.07965514 0.097389184 0.021409484 0.067911215 0.041528877 -0.109256044 -0.08297618
-0.10268306 -0.012663303 -0.0045028725 -0.1014871 0.031523034 0.12518848 -0.07868977 0.10047694
0.069277674 -0.024655508 -0.14939232 0.124918565 -0.0049894666 -0.052361 -0.0045881006 0.12359795
-0.0014787758 0.039265055 -0.07290921 -0.040661782 -0.06809339 -0.01459826 -0.053891264 -0.024745509
0.032736775 0.14013544 -0.041598856 -0.04366624 0.025676697 -0.049857497 0.0077589303 0.0037413463
0.0008096548 0.030429626 -0.06709655 -0.042491872 -0.015501981 -0.07229992 -0.023773985 -0.035664137
0.08213459 -0.10066405 -0.014681919 0.0672599 0.012654897 0.070812315 0.029925223 -0.019618182
0.117971525 -0.08346445 -0.012660846 -0.0057828794 -0.050211955 0.025649557 0.023792138 -0.065729275
-0.017879384 -0.010565631 0.01096442 0.02894282 0.05161458 0.01003321 0.06845921 0.022790784
-0.03250952 0.015188479 0.0032155425 0.07697668 0.03907183 0.067438476 0.04619791 -0.08028772
0.046191514 -0.07582598 -0.019934248 0.04734374 -0.063643314 0.018392913 0.056782033 0.022320708
0.06274901 0.006920247 0.08237746 0.12286126 0.16233091 -0.0070749368 -0.0033052906 0.013336445
0.037020795 0.0035099722 0.09136031 0.029032951 -0.045609 -0.047712803 0.010695328 0.060253974
-0.06516351 -0.04758749 -0.031893924 -0.10668326 -0.064472646 -0.029312016 -0.00798914 0.004903027
-0.004340779 0.017675439 0.002162076 0.13950239 0.020365853 -0.08645807 -0.07074737 0.07928617
0.0991514 -0.026545815 -0.019982534 0.06779149 0.07553842 -0.03342898 -0.02756784 -0.051520567
0.058126956 -0.04198671 -0.082767375 -0.036111217 -0.07247162 -0.053341907 0.027701316 0.04719034
-0.034477707 -0.044760894 -0.17391992 0.023231404 -0.052623928 0.023563726 -0.11763388 -0.07415716
0.068413146 -0.005318214 -0.039124873 -0.062981136 -0.040704563 -0.026509052 -0.08564887 0.009843501
0.026237939 0.02522504 0.1264092 0.013688692 0.009837546 -0.03317341 0.08606305 -0.023794785
0.04660899 0.11467084 -0.05312143 -0.12341475 -0.07153325 0.017782211 -0.076896794 0.029731486
-0.090684585 -0.008103859 -0.082757704 -0.0396779 -0.05889498 0.123409584 0.086072594 0.06344427
-0.0016368213 -0.10827217 0.00071410957 0.20935765 -0.019365415 0.044846803 0.058115847 -0.11202936
0.0044952063 -0.02839245 0.039998423 -0.03869239 -0.042209342 0.041189753 -0.009469513 0.06202694
-0.01861371 -0.029619116 -0.0055184467 -0.06620122 0.02738131 0.00029482835 -0.033214442 -0.06323172
0.037599605 -0.037398957 -0.030437486 -0.08431436 -0.09530681 0.06199483 0.054186713 0.0040315376
0.036504388 0.054641876 0.015112766 0.09187901 0.008815582 -0.0299535 0.05119962 -0.008152408
00000000: 4849 c1bc d498 34bd d76a 963d f9a8 ec3c
00000010: e2e6 353d b5ec 78bd bf68 08bc d728 b6bd
00000020: 9e02 253d 524d a0bc c1ca 42bd 26f0 06bd
00000030: 59a9 d63d bb10 3e3d 63db c0bc f4e3 b6bd
00000040: cd88 473d 5fba 513c be34 2e3c 7610 e5bb
00000050: c94b 13bd 9e60 b8bc e862 363d c353 3e3d
00000060: 6d30 703b 14e7 cf3c d915 e93c 37fc 423d
00000070: 22ba 053d 782d 353c c936 5e3d 760d 24bc
00000080: 8c18 8cbd be40 5a3d 43b0 ab3d 487a 01bb
00000090: 2556 123b 7fbc 8b3d 8f62 89bd 9cb3 b0bb
000000a0: f13a f7bc 3c22 a3bd fb73 c73d f162 af3c
000000b0: 0915 8b3d 2f1a 2a3d a2c1 dfbd 6aef a9bd
000000c0: 7f4b d2bd be79 4fbc d58c 93bb 78d8 cfbd
000000d0: 4c1e 013d 6931 003e 1a28 a1bd dbc6 cd3d
000000e0: 74e1 8d3d 59fa c9bc 4dfa 18be 4ed5 ff3d
000000f0: ae7e a3bb 7d78 56bd c757 96bb ec20 fd3d
00000100: 7bd3 c1ba 65d4 203d 6d51 95bd f88c 26bd
00000110: 8c74 8bbd 8a2d 6fbc 16bd 5cbd 18b7 cabc
00000120: ff16 063d aa7f 0f3e 9063 2abd 5fdb 32bd
00000130: f057 d23c 6037 4cbd a03e fe3b 6031 753b
00000140: 043f 543a 8d47 f93c ea69 89bd f50b 2ebd
00000150: 05fc 7dbc fb11 94bd a9c1 c2bc 8f14 12bd
00000160: 2e36 a83d f428 cebd 6e8c 70bc 8fbf 893d
00000170: 7c56 4f3c 0c06 913d be25 f53c 4fb6 a0bc
00000180: 0e9b f13d 69ef aabd 706f 4fbc 4f7e bdbb
00000190: 0dab 4dbd 051f d23c bbe7 c23c 129d 86bd
000001a0: c977 92bc 781b 2dbc 1ca4 333c 7e19 ed3c
000001b0: cf69 533d 5562 243c 5834 8c3d bdb3 ba3c
000001c0: b428 05bd 19d9 783c dabb 523b f3a5 9d3d
000001d0: c909 203d 2f1d 8a3d 053a 3d3d e36d a4bd
000001e0: 5033 3d3d a74a 9bbd 264d a3bc 82eb 413d
000001f0: 6d57 82bd bcac 963c 4794 683d ebd9 b63c
00000200: 8e82 803d 3dc3 e23b 84b5 a83d af9e fb3d
00000210: 133a 263e dfd4 e7bb 939d 58bb 1b81 5a3c
00000220: 1ea3 173d 9007 663b 1d1b bb3d 83d6 ed3c
00000230: 81d0 3abd 806e 43bd 753b 2f3c dfcc 763d
00000240: 7274 85bd 1aeb 42bd 34a3 02bd c17c dabd
00000250: 3c0a 84bd c11f f0bc e2e4 02bc 92a9 a03b
00000260: 183d 8ebb 15cc 903c 9eb1 0d3b b7d9 0e3e
00000270: 4ad6 a63c ee10 b1bd ffe3 90bd ca60 a23d
00000280: e40f cb3d 9c76 d9bc 69b2 a3bc 44d6 8a3d
00000290: e3b3 9a3d d3ec 08bd f3d5 e1bc 3b07 53bd
000002a0: 8816 6e3d 42fa 2bbd f181 a9bd 5be9 13bd
000002b0: 006c 94bd 0b7d 5abd dfed e23c a84a 413d
000002c0: 7f38 0dbd 3357 37bd 1018 32be c94f be3c
000002d0: 308c 57bd b708 c13c 08ea f0bd b6df 97bd
000002e0: 311c 8c3d 6a44 aebb 6741 20bd 41fc 80bd
000002f0: d4b9 26bd 8329 d9bc ad68 afbd a346 213c
00000300: f2f0 d63c bea4 ce3c 6a71 013e 8946 603c
00000310: a92d 213c d7e0 07bd d341 b03d 48ed c2bc
00000320: 11e9 3e3d 8cd8 ea3d db95 59bd dfc0 fcbd
00000330: 0680 92bd 00ac 913c 117c 9dbd 728f f33c
00000340: d7b8 b9bd 0cc6 04bc df7c a9bd 4b85 22bd
00000350: dd3b 71bd 2abe fc3d d446 b03d 12ef 813d
00000360: 9c8a d6ba cdbd ddbd 1533 3b3a da61 563e
00000370: 38a4 9ebc 48b1 373d e20a 6e3d a66f e5bd
00000380: 864c 933b 4997 e8bc 63d5 233d e97b 1ebd
00000390: b4e3 2cbd 96b6 283d 0426 1bbc f60f 7e3d
000003a0: c77b 98bc caa3 f2bc 16d4 b4bb 8194 87bd
000003b0: c54e e03c 3193 9a39 de0b 08bd a27f 81bd
000003c0: 0b02 1a3d a62f 19bd 0958 f9bc 02ad acbd
000003d0: 3830 c3bd 4aee 7d3d e3f2 5d3d fd1a 843b
000003e0: a085 153d 29d0 5f3d 899b 773c 102b bc3d
000003f0: 3b6f 103c 0b61 f5bc b1b6 513d ad91 05bc

F6.bias f4 [84]
-0.1388279 0.08052532 0.09181638 0.023434754 -0.047224108 -0.08977911 -0.011531652 0.1455714
0.14067791 -0.12088944 -0.19466867 -0.02043486 0.13953671 -0.037512764 -0.07839153 0.0121014165
0.06336772 -0.0024527414 0.031502817 -0.01577625 0.042740572 -0.043346897 -0.025878977 -0.05948802
0.094143875 0.103847094 -0.08383289 -0.008377323 -0.009915707 -0.024893498 -0.07076744 0.13928737
0.0061386297 -0.04349554 0.089578725 -0.04209109 0.15012632 -0.13214886 -0.016525183 -0.014775827
0.041101273 0.06741081 -0.012306112 -0.0049815355 0.1015209 0.16383828 -0.0036923108 -0.07028821
0.049497064 0.010912432 0.021854937 -0.13596137 -0.023537304 0.012751406 0.1368328 0.020758932
-0.0100046415 -0.07353401 0.0017498861 0.0025984708 -0.050459713 0.15455149 -0.0043181106 -0.013088442
0.112398215 0.12751223 0.028060151 -0.061029647 0.09598246 0.042121377 0.07399135 -0.14188954
-0.012621707 -0.008536021 0.03705076 -0.12407619 0.0053853593 -0.047468353 -0.07159063 0.15847372
-0.08419356 0.03104694 -0.05497671 0.017436488
00000000: e728 0ebe 75ea a43d 3a0a bc3d 3efa bf3c
00000010: 116e 41bd 1cde b7bd 41ef 3cbc ab10 153e
00000020: df0d 103e e294 f7bd 3957 47be 0267 a7bc
00000030: b6e2 0e3e fca6 19bd bd8b a0bd 0545 463c
00000040: efc6 813d 2cbe 20bb 1909 013d 323d 81bc
00000050: bd10 2f3d 848c 31bd 2600 d4bc b6a9 73bd
00000060: 81ce c03d c9ad d43d 94b0 abbd 0a41 09bc
00000070: 7d75 22bc 73ed cbbc 85ee 90bd 59a1 0e3e
00000080: 8f26 c93b 6128 32bd 0d75 b73d b567 2cbd
00000090: b7ba 193e 0852 07be d25f 87bc 4f16 72bc
000000a0: cf59 283d ae0e 8a3d 939f 49bc 263c a3bb
000000b0: 31ea cf3d 39c5 273e b2fa 71bb 44f3 8fbd
000000c0: 6fbd 4a3d 0fca 323c 2009 b33c 7539 0bbe
000000d0: 4ed1 c0bc 46eb 503c e61d 0c3e a30e aa3c
000000e0: 82ea 23bc 0099 96bd 6f5c e53a 1b4b 2a3b
000000f0: d8ae 4ebd bf42 1e3e f07e 8dbb e870 56bc
00000100: 0931 e63d 9192 023e 67de e53c 39fa 79bd
00000110: 7492 c43d 7787 2c3d c788 973d 7e4b 11be
00000120: 47cb 4ebc abda 0bbc 8ac2 173d a81b febd
00000130: ab77 b03b 2d6e 42bd 1c9e 92bd ef46 223e
00000140: ac6d acbd 2756 fe3c 422f 61bd f7d6 8e3c

output_layer.centers f4 [10, 84]
-0.42391202 0.3281439 0.29059774 0.15204068 -0.11996314 0.3182443 0.3918385 0.28871027
0.45160145 -0.35752994 -0.5383037 0.20235206 0.5593933 -0.66508406 -0.01821467 0.26003733
0.52920204 0.24864289 -0.15266934 -0.38859352 0.45454147 -0.22549227 -0.11397761 0.024010846
0.7400026 0.72647536 -0.1924865 0.48282334 0.30504844 0.39987826 -0.569494 0.5372933
0.025642764 -0.07306568 0.6429112 -0.22407094 0.55984664 -0.31808707 -0.20275433 0.0014217485
0.12387471 0.20833755 -0.15764557 -0.34474555 0.20222145 0.743302 0.19925788 0.27134302
-0.1450069 0.5395648 -0.03616407 -0.57877034 0.11176374 0.07568734 0.6221784 0.29927316
-0.40783176 -0.42264253 -0.25072223 -0.016310155 0.41360083 0.32335338 0.12826003 -0.10461431
0.43528238 0.44387218 -0.046981048 0.21066196 -0.1423045 -0.068507984 -0.052148767 -0.7007346
0.33481318 -0.45442793 0.27986127 -0.80496347 -0.27466214 0.2775013 -0.2044186 0.35379374
-0.19455741 -0.19581293 -0.40416875 0.19871318 -0.40901926 0.3373866 0.3815033 -0.32258067
-0.18246631 0.2715622 -0.049460348 -0.18565056 0.42174193 0.013932324 -0.46587443 -0.22826858
0.24245447 -0.7012669 -0.03850437 0.27960032 0.5487291 -0.21737793 -0.1467591 -0.2645741
0.36492428 0.22695969 0.0373625 -0.4353753 0.19386086 0.6554175 -0.026740357 0.45530418
0.33851522 0.4870392 -0.053780604 0.21449032 -0.31912184 0.3942728 0.66721165 0.25353256
0.39391217 -0.8157654 0.19635223 0.2440523 0.13316396 -0.28630322 -0.54457474 -0.014695416
-0.24718595 0.26431414 -0.17155641 -0.32152873 -0.11267261 -0.03256462 0.3708764 -0.64182067
-0.3015908 -0.30430534 0.5654332 -0.16090557 0.054284975 -0.5129712 0.13781272 0.041412186
-0.05499187 0.6707441 -0.38960138 -0.07727273 -0.07493483 -0.116869204 -0.035307374 -0.25924253
-0.10161343 -0.32572082 0.29094654 -0.64473146 -0.09703193 -0.41968596 -0.16151294 -0.756808
0.14152099 -0.27437952 -0.31906065 0.35934728 0.25296247 0.23160134 -0.048745148 -0.16427475
-0.21373995 0.27668658 0.45273778 -0.051300667 -0.11848065 0.39631787 0.27810103 0.18150567
0.20173742 -0.32550663 -0.44933724 0.16631459 0.55797386 -0.7409037 0.038417507 0.0916563
0.4615929 0.10602484 0.20075743 -0.014641336 0.14602707 -0.071787074 0.08149854 -0.04006326
0.5779517 0.7225938 0.2784483 0.50504667 0.28793177 0.5297338 -0.5113634 0.6075017
-0.2499033 0.12235475 0.7373097 0.0688943 0.10941586 -0.7570472 -0.06006109 -0.042974647
0.015414645 -0.2719856 -0.58865273 -0.26522785 -0.23343834 0.6938763 0.11579932 -0.33054322
0.116009556 0.14873879 0.3303887 -0.6570012 -0.03424582 0.0009268594 0.3778747 0.006193323
-0.082420066 -0.7072212 -0.26640323 -0.020001896 0.25032246 0.36797568 -0.36802772 0.118418805
0.12258484 -0.16113211 0.0009342985 -0.119378954 -0.15941206 0.107452154 -0.011093858 -0.264759
0.38757795 -0.4582504 0.078491785 -0.798596 -0.044116333 -0.3781611 -0.51220447 0.5906949
-0.09641536 0.3026649 -0.3754307 -0.01609301 -0.54858935 -0.16361684 0.29657537 -0.3946348
00000000: ff0a d9be 7a02 a83e 3ac9 943e 8db0 1b3e
00000010: 3caf f5bd ebf0 a23e 0e9f c83e d5d1 933e
00000020: 4e38 e73e 2a0e b7be 45ce 09bf 6135 4f3e
00000030: 6634 0f3f f342 2abf ee36 95bc 9d23 853e
00000040: c979 073f 3e9c 7e3e 5a55 1cbe bbf5 c6be
00000050: a9b9 e83e 72e7 66be 186d e9bd 65b2 c43c
00000060: cf70 3d3f 4afa 393f 2e1b 45be 9f34 f73e
00000070: 4f2f 9c3e d8bc cc3e 5cca 11bf 0e8c 093f
00000080: c610 d23c 76a3 95bd d495 243f da72 65be
00000090: 1c52 0f3f 4fdc a2be d59e 4fbe f759 ba3a
000000a0: 06b2 fd3d 7056 553e d76d 21be 7d82 b0be
000000b0: 2413 4f3e 0a49 3e3f 420a 4c3e 79ed 8a3e
000000c0: b07c 14be eb20 0a3f c720 14bd 4b2a 14bf
000000d0: 63e4 e43d f701 9b3d 1547 1f3f 553a 993e
000000e0: 53cf d0be 9a64 d8be aa5e 80be e09c 85bc
000000f0: 7dc3 d33e 938e a53e 9956 033e 0740 d6bd
00000100: 55dd de3e 3743 e33e 336f 40bd c5b7 573e
00000110: 45b8 11be ea4d 8cbd f299 55bd 5863 33bf
00000120: a26c ab3e c7aa e8be fa49 8f3e 1612 4ebf
00000130: 84a0 8cbe a714 8e3e 1c53 51be 7424 b53e
00000140: 0f3a 47be 2f83 48be 35ef cebe 787b 4b3e
00000150: f96a d1be f0bd ac3e 6754 c33e 4b29 a5be
00000160: 73d8 3abe 330a 8b3e ef96 4abd 2e1b 3ebe
00000170: 8fee d73e 6744 643c 1887 eebe 3dbf 69be
00000180: fc45 783e 3a86 33bf c2b6 1dbd c627 8f3e
00000190: 8379 0c3f 5298 5ebe 0448 16be 4276 87be
000001a0: 5bd7 ba3e 1f68 683e 6c09 193d 83e9 debe
000001b0: 7683 463e 71c9 273f 980e dbbc a11d e93e
000001c0: de51 ad3e 345d f93e 0d49 5cbd 5aa3 5b3e
000001d0: f063 a3be 20de c93e 62ce 2a3f 05cf 813e
000001e0: dbae c93e 00d6 50bf 8f10 493e d9e8 793e
000001f0: 225c 083e 5696 92be 4069 0bbf 0bc5 70bc
00000200: 501e 7dbe 2f54 873e 7cac 2fbe 6a9f a4be
00000210: e6c0 e6bd 7b62 05bd 83e3 bd3e 5c4e 24bf
00000220: 1c6a 9abe e9cd 9bbe 3bc0 103f 6ec4 24be
00000230: ec59 5e3d 1552 03bf c71e 0d3e d39f 293d
00000240: 283f 61bd e3b5 2b3f d579 c7be 2a41 9ebd
00000250: 6f77 99bd 1f59 efbd 779e 10bd 70bb 84be
00000260: b41a d0bd e1c4 a6be f2f6 943e 1f0d 25bf
00000270: adb8 c6bd 14e1 d6be a663 25be 2bbe 41bf
00000280: e1ea 103e 797b 8cbe eb5b a3be 5efc b73e
00000290: 4c84 813e e728 6d3e fea8 47bd a437 28be
000002a0: a5de 5abe dda9 8d3e 3fcd e73e a620 52bd
000002b0: fca5 f2bd 2dea ca3e 4263 8e3e 9fdc 393e
000002c0: 4194 4e3e cea8 a6be 880f e6be 5f4e 2a3e
000002d0: 60d7 0e3f ddab 3dbf ad5b 1d3d 4cb6 bb3d
000002e0: e855 ec3e 8d23 d93d 5b93 4d3e 37e2 6fbc
000002f0: 1f88 153e 1a05 93bd b5e8 a63d 5f19 24bd
00000300: a5f4 133f e8fb 383f c790 8e3e bd4a 013f
00000310: cb6b 933e a29c 073f b6e8 02bf 3b85 1b3f
00000320: a7e6 7fbe 2195 fa3d 54c0 3c3f 7418 8d3d
00000330: 6c15 e03d d8cd 41bf 9e02 76bd 2f06 30bd
00000340: b58d 7c3c b241 8bbe f2b1 16bf f2cb 87be
00000350: 760a 6fbe e1a1 313f 3228 ed3d f63c a9be
00000360: 6b96 ed3d fb4e 183e b528 a93e 3b31 28bf
00000370: 5845 0cbd 7bf8 723a cb78 c13e 5cf1 ca3b
00000380: dacb a8bd 730c 35bf 0166 88be 04db a3bc
00000390: 442a 803e 4f67 bc3e 216e bcbe 8f85 f23d
000003a0: c30d fb3d d1ff 24be b6eb 743a f47c f4bd
000003b0: ea3c 23be e00f dc3d 03c3 35bc 7e8e 87be
000003c0: 9e70 c63e cc9f eabe 4dc0 a03d ca70 4cbf
000003d0: 54b3 34bd 559e c1be d51f 03bf c837 173f
000003e0: 6b75 c5bd e5f6 9a3e 7438 c0be 7dd5 83bc
000003f0: 5a70 0cbf 2c8b 27be bad8 973e 930d cabe
